outputs/ultrra_testing/ckpts_point_cloud/iteration_5/color_net.pth (torch, 222255 bytes, 18 tensors)

encoder.lin0.weight f4 [128, 159]
0.09540979 0.017831553 -0.039859563 0.032284632 -0.030367821 -0.031705275 -0.0124465125 0.05660262
0.027854702 -0.10083351 0.03131207 0.14320128 0.09656309 0.015112626 -0.028337037 -0.039976034
-0.12584777 0.010890114 0.041950952 0.17897564 -0.04085935 0.11254664 0.025063433 -0.024476727
0.02780262 -0.09752771 -0.015640123 -0.02234769 -0.048081312 -0.10003292 0.022535337 0.00033572852
0.010093568 -0.030755002 -0.043693345 -0.1793886 -0.10335697 0.19591263 -0.20251463 -0.15802336
-0.040836453 -0.027259756 -0.057344913 0.025843866 -0.12817219 -0.070863225 -0.020117309 0.02258427
0.10875974 -0.10659034 -0.19288965 -0.026795551 0.10515723 0.111864075 0.0147462515 -0.080332085
-0.08067157 -0.09557287 -0.028330913 0.066335164 0.0645827 0.04751177 0.045326907 0.14638454
-0.12331344 0.056960348 0.1170175 0.061727643 -0.15945505 -0.0436455 -0.05413812 0.13597308
-0.03466058 -0.10594591 -0.025208417 -0.09331404 0.029073993 0.06284352 0.069298506 0.07194047
-0.061037224 0.0095519405 -0.008563689 0.13454388 0.09585355 -0.0052960687 0.09699836 -0.03359508
-0.016121387 -0.060785018 0.0015923831 -0.0148107875 -0.07778582 -0.043930568 0.04202401 0.048268203
-0.03496523 -0.21926683 0.0029065644 -0.03435994 0.038913645 -0.036535963 0.115480825 -0.02962808
-0.019520892 -0.03600674 -0.01256052 0.024751142 0.008027499 -0.048479743 0.05952955 0.029807314
0.11593995 -0.16764581 0.0064454884 0.15744305 -0.03914018 -0.0217767 0.025352284 -0.10210594
0.019409781 0.10993848 -0.09797177 0.0927875 -0.022552831 -0.10351607 0.0057495506 0.010620835
-0.0826368 0.00686389 0.041285142 -0.088107765 0.037869092 -0.011257952 -0.0017490276 -0.029574614
-0.14022414 -0.038627274 0.09201636 0.04672621 0.044478927 0.00041969618 0.022211585 0.11568298
0.04389987 -0.10760924 0.048112188 0.0017929788 -0.15777755 0.02467368 -0.21688576 -0.16290866
0.011186985 0.019865863 0.06788801 0.085923284 -0.065639704 -0.026626343 0.13396312 0.044188738
-0.1394938 0.11213254 0.011291192 0.023647504 -0.03227915 -0.08516795 -0.04444532 0.08410424
0.05569302 -0.046879318 -0.055128317 0.06305871 0.061690982 -0.09905119 -0.070300885 0.13549468
-0.0594231 0.10333626 0.06893895 0.0127285775 0.1828915 0.0012910041 0.029620081 0.005485835
-0.022300737 -0.04330428 0.043956976 -0.20333818 -0.0656479 -0.13124232 -0.056233913 -0.21775563
-0.11916918 0.11310162 -0.1346117 0.06374697 0.0665005 0.08206761 -0.028683992 -0.09438648
-0.09222203 0.045753974 0.037558384 -0.0014279291 -0.043203626 0.268264 -0.08167244 -0.079107314
0.13429974 0.11014061 -0.06507879 -0.0085706 0.15759073 -0.023791356 -0.020296304 0.0013350884
0.030407863 0.030006517 -0.05728298 -0.03197479 0.12754558 0.09964519 -0.09866654 -0.09890248
-0.021337818 0.067019336 0.039860923 -0.05537713 -0.020986741 0.06213997 -0.08741808 -0.000584124
-0.00061978627 -0.021638516 -0.054472093 -0.06362213 0.053870253 0.005048482 0.06812225 -0.0010112938
-0.07259412 -0.016699994 -0.0042955033 0.0574062 -0.09784178 -0.03273251 0.093217134 0.033792708
-0.08032221 0.06433465 0.04512592 0.108470045 0.089447275 -0.096517734 -0.08247874 -0.073042355
00000000: 3566 c33d 7a13 923c c843 23bd e43c 043d
00000010: f0c5 f8bc 64dd 01bd 75ec 4bbc 26d8 673d
00000020: 8b2f e43c cd81 cebd 1641 003d 5ba3 123e
00000030: dfc2 c53d f39a 773c 1323 e8bc e9bd 23bd
00000040: 3dde 00be 736c 323c c3d4 2b3d 6445 373e
00000050: 225c 27bd da7e e63d d451 cd3c 6b83 c8bc
00000060: 52c2 e33c 9cbc c7bd b71f 80bc 8112 b7bc
00000070: e9f0 44bd 0fde ccbd 079c b83c b804 b039
00000080: 7e5f 253c eaf1 fbbc cbf7 32bd a5b1 37be
00000090: d2ac d3bd 529d 483e ff5f 4fbe e0d0 21be
000000a0: 2044 27bd da4f dfbc 80e2 6abd 84b6 d33c
000000b0: 923f 03be bd20 91bd 0ecd a4bc a602 b93c
000000c0: 6dbd de3d 094c dabd dd84 45be 5882 dbbc
000000d0: ac5c d73d fe18 e53d 439a 713c 2685 a4bd
000000e0: 2337 a5bd b5bb c3bd 3b16 e8bc bbda 873d
000000f0: ef43 843d b49b 423d b5a8 393d d4e5 153e
00000100: c28b fcbd 414f 693d dfa6 ef3d 20d6 7c3d
00000110: 2f48 23be a0c5 32bd efbf 5dbd 873c 0b3e
00000120: 41f8 0dbd 2bfa d8bd e281 cebc 6e1b bfbd
00000130: 952c ee3c 1ab4 803d 60ec 8d3d 8655 933d
00000140: 2b02 7abd be7f 1c3c b74e 0cbc dfc5 093e
00000150: de4e c43d a58a adbb 13a7 c63d ff9a 09bd
00000160: 0011 84bc b6f9 78bd 83b7 d03a f2a8 72bc
00000170: 2c4e 9fbd 8af0 33bd 5e21 2c3d e1b4 453d
00000180: b337 0fbd 7c87 60be 0f7c 3e3b 02bd 0cbd
00000190: ea63 1f3d bca6 15bd 3681 ec3d 96b6 f2bc
000001a0: 47ea 9fbc ce7b 13bd a4ca 4dbc e8c2 ca3c
000001b0: c585 033c b292 46bd 42d5 733d 782e f43c
000001c0: ed71 ed3d 58ab 2bbe ad34 d33b c038 213e
000001d0: 7451 20bd 0d65 b2bc 98af cf3c eb1c d1bd
000001e0: 4301 9f3c 6d27 e13d 6ca5 c8bd 5f07 be3d
000001f0: b7c0 b8bc 3c00 d4bd ba66 bc3b 0303 2e3c
00000200: 7c3d a9bd 7cea e03b 9c1a 293d d871 b4bd
00000210: 9f1c 1b3d 4673 38bc a13f e5ba 7646 f2bc
00000220: eb96 0fbe a237 1ebd 1373 bc3d fb63 3f3d
00000230: 892f 363d ab0a dc39 12f5 b53c 33eb ec3d
00000240: 5ad0 333d 3c62 dcbd 4911 453d 6302 eb3a
00000250: 7090 21be 7520 ca3c 4d17 5ebe 87d1 26be
00000260: 9e49 373c bcbd a23c de08 8b3d 8cf8 af3d
00000270: 1c6e 86bd 7d1f dabc a12d 093e 40ff 343d
00000280: 76d7 0ebe bfa5 e53d b1fe 383c 69b8 c13c
00000290: 2437 04bd 896c aebd 4c0c 36bd d83e ac3d
000002a0: 5d1e 643d 8704 40bd 3bce 61bd ed24 813d
000002b0: afaf 7c3d 5adb cabd e9f9 8fbd 1ebf 0a3e
000002c0: a365 73bd f6a1 d33d dd2f 8d3d 868b 503c
000002d0: e947 3b3e e936 a93a d0a5 f23c 85c2 b33b
000002e0: 09b0 b6bc d45f 31bd 3b0c 343d e237 50be
000002f0: 6872 86bd 6364 06be 8855 66bd 55fb 5ebe
00000300: f90e f4bd d2a1 e73d a6d7 09be c58d 823d
00000310: 6a31 883d 1013 a83d b1fa eabc b34d c1bd
00000320: e7de bcbd 8568 3b3d d2d6 193d 5a29 bbba
00000330: 49f6 30bd e659 893e e143 a7bd 0403 a2bd
00000340: df85 093e 6691 e13d 0748 85bd b46b 0cbc
00000350: 775f 213e 17e6 c2bc 6f44 a6bc 22fe ae3a
00000360: e919 f93c 3ad0 f53c 8fa1 6abd fff7 02bd
00000370: 4f9b 023e c712 cc3d af11 cabd 628d cabd
00000380: a6cc aebc 6f41 893d 3545 233d 21d3 62bd
00000390: 63ec abbc 7b86 7e3d 4008 b3bd e61f 19ba
000003a0: 2779 22ba 4243 b1bc 211e 5fbd 524c 82bd
000003b0: 0ea7 5c3d bd6d a53b ae83 8b3d 648d 84ba
000003c0: 3aac 94bd 6dce 88bc 4bc1 8cbb c322 6b3d
000003d0: 4561 c8bd 8612 06bd a0e8 be3d 396a 0a3d
000003e0: f97f a4bd e3c1 833d f5d5 383d 8b25 de3d
000003f0: 2230 b73d 17ab c5bd 9dea a8bd 3b97 95bd

encoder.lin0.bias f4 [128]
0.0017263285 0.0018556137 -0.0017096824 -0.0003682785 -0.0017112066 -0.00019359674 0.00016843002 0.00085745385
0.001915212 0.0017224712 -0.0018075808 -0.0016916147 0.0017050789 -0.001970572 -0.001502257 0.0017219401
0.00042714557 -0.0018963177 -0.0012343687 0.0011417299 -0.00072210893 -0.0017288005 -0.0015319688 0.0014703376
0.0014798446 -0.001094688 -0.0018073777 0.0014051726 0.00020557137 -0.0015601093 -0.0017069489 -0.001750403
-0.0015884913 -0.0013994533 0.00084559 -0.0015870176 -0.001870237 0.0016189658 0.0016674385 -0.0013706619
0.001783948 -0.00047664897 0.0018920877 -0.0006616589 0.00037647222 0.0010098092 0.001896318 -0.0015983798
0.00032005776 -0.00044647534 -0.0004606073 0.0017223336 0.0005731416 -0.0017082974 0.0018018073 0.0018357614
0.0009922684 -0.0011598981 0.001677459 -0.0010013687 -3.0243133e-05 -0.0003752453 -0.001535117 -0.0017365745
0.0018971857 -0.0015933143 -0.001487931 0.0014652358 0.0017032501 0.001576837 0.0014352073 0.0015565272
-0.0014504618 -0.0014449182 -0.0013216852 0.0019800626 0.0017753867 0.0013999485 0.0016338752 0.001780208
0.0015723445 -0.0016214254 3.3139295e-05 -0.0017358224 0.001597898 0.0016761225 0.0017704993 0.00058845675
0.00059815764 -0.0010083332 -0.00047755282 -0.0017727695 -0.001542748 -0.0004065412 0.0014924706 0.0011085296
0.0005202827 0.0008354849 0.0015700597 -0.0016030805 -0.0013862303 -0.0006513633 0.0018716437 0.0014280317
-0.0018558505 0.001623143 0.0013428796 0.0015439745 3.6235917e-05 0.0017913209 -0.0017670144 -0.0004281064
0.0018817191 -0.0016560788 0.0012758151 0.0018186534 0.0012499441 0.001569881 -0.0018436692 -0.0017425661
0.0017028281 0.0016509434 -0.0014299229 0.0010339981 -0.001891763 -0.0012010016 0.0014083538 -7.800237e-05
00000000: f945 e23a 1038 f33a 6c17 e0ba 8115 c1b9
00000010: 914a e0ba 3b00 4bb9 979c 3039 c1c6 603a
00000020: da07 fb3a 8bc4 e13a 59ec ecba 2cb9 ddba
00000030: f47c df3a b624 01bb 61e7 c4ba b9b2 e13a
00000040: 82f2 df39 dd8d f8ba 8aca a1ba 19a6 953a
00000050: e94b 3dba eb98 e2ba 58cc c8ba 58b8 c03a
00000060: 58f7 c13a a27b 8fba 88e5 ecba c52d b83a
00000070: a58e 5739 957c ccba b3bb dfba c76d e5ba
00000080: ec34 d0ba dc6d b7ba 96aa 5d3a 7903 d0ba
00000090: be22 f5ba 7a33 d43a f48d da3a c8a7 b3ba
000000a0: 5dd3 e93a bee6 f9b9 eeff f73a 2d73 2dba
000000b0: 3f61 c539 935b 843a e08d f83a ba80 d1ba
000000c0: 6dcd a739 e814 eab9 aa7d f1b9 edbf e13a
000000d0: e23e 163a f3e8 dfba 9f2a ec3a ee9d f03a
000000e0: 010f 823a b907 98ba 2fde db3a 5c40 83ba
000000f0: a2b2 fdb7 92bc c4b9 fb35 c9ba c59d e3ba
00000100: fdaa f83a c2d6 d0ba ae06 c3ba 280d c03a
00000110: 973f df3a dfad ce3a 911d bc3a 6304 cc3a
00000120: 6c1d beba 6963 bdba 653c adba f0c3 013b
00000130: 18b4 e83a 7a7e b73a c127 d63a de55 e93a
00000140: 2017 ce3a 0286 d4ba 0cff 0a38 8984 e3ba
00000150: 8f70 d13a 57b1 db3a 1910 e83a aa42 1a3a
00000160: aecd 1c3a 0c2a 84ba 0e60 fab9 465c e8ba
00000170: 0836 caba 0925 d5b9 019f c33a 154c 913a
00000180: 9563 083a 7104 5b3a 76ca cd3a 751e d2ba
00000190: 2cb2 b5ba 40c0 2aba f151 f53a cb2c bb3a
000001a0: 0240 f3ba a4bf d43a 9003 b03a 305f ca3a
000001b0: 05fc 1738 c1ca ea3a 2a9b e7ba 7873 e0b9
000001c0: 04a4 f63a c910 d9ba 4039 a73a e25f ee3a
000001d0: 2ad5 a33a 77c4 cd3a 46a7 f1ba d166 e4ba
000001e0: 6e31 df3a 7864 d83a 406c bbba 3887 873a
000001f0: 08f5 f7ba ed6a 9dba 8398 b83a 3495 a3b8

encoder.lin1.weight f4 [96, 128]
-0.089527845 -0.04603033 0.0014755416 0.14421108 0.026879163 0.13446158 -0.012013398 0.02526212
-0.03495491 -0.052259415 -0.06670755 -0.01297638 -0.01873924 0.084735885 0.10396731 -0.2232825
0.014459727 -0.09257812 -0.0045568855 0.21512514 -0.0877611 -0.009405912 0.072213724 -0.08600264
-0.06448648 -0.05262779 0.04933398 0.08011467 0.07622639 0.027092202 0.12406276 0.10810309
-0.026271174 0.030006919 0.08765289 0.12958889 -0.053351037 0.08831019 0.025434738 0.08390699
0.05905668 -0.17887169 -0.010993768 -0.049914878 -0.020136314 -0.0018592336 0.14668639 0.029752668
-0.02885882 -0.10664872 -0.119152464 -0.081259295 0.06400804 -0.025993612 -0.01825054 0.069154896
-0.16165179 -0.019308547 -0.14213818 0.116033286 0.0912385 0.117363006 -0.14247566 0.099787205
-0.065276116 0.0056241076 0.019667553 0.120387785 0.003468205 0.025390407 0.09035912 -0.04882255
-0.03759955 -0.027217131 -0.025592968 -0.066264115 0.086995885 -0.1474697 0.04941933 0.0028757039
-0.018060455 0.117044106 -0.046006087 -0.05074331 0.10088077 0.17508255 -0.16248305 -0.09953026
-0.004568109 -0.062010564 0.010358778 -0.07098637 -0.032716952 0.1127493 -0.026184997 0.11388594
-0.1770781 -0.08877487 -0.114243545 -0.10278948 0.030975187 0.11331109 0.018318264 0.045863945
0.042167388 -0.05816133 -0.11555871 -0.02464478 -0.07703038 -0.09327471 0.027760742 0.06211356
-0.096569456 -0.01025663 -0.17752196 0.029331926 -0.16143562 -0.09054322 -0.2233629 0.033979055
0.008257094 -0.030856658 -0.13552316 0.043429714 0.12392285 -0.021680525 -0.06408886 0.034456953
0.053978276 0.051945172 -0.086246446 -0.031229354 -0.045454375 0.05032867 -0.035586488 -0.011284014
-0.018639639 -0.05435825 0.12338917 -0.061999463 -0.023538297 -0.07797833 -0.08217659 -0.077864856
0.11110317 0.058179285 -0.09468577 0.17771332 0.009995359 0.108702995 0.07783576 -0.03175387
0.03721817 0.0071411203 0.022655105 -0.22708085 0.013963719 0.021521688 0.10082512 0.060820367
0.03527462 0.13015383 0.08841741 -0.0082931565 0.09959216 -0.010681122 0.06502847 -0.022950757
-0.080705315 0.17054228 -0.10329814 -0.08360429 0.04595794 0.010262586 0.07042011 -0.0050333384
-0.0676724 0.02637808 0.0706435 -0.050061148 0.10297676 0.15490441 -0.24144977 -0.0692848
-0.015565488 -0.019143226 -0.017543022 0.12170498 0.07075736 -0.12410962 -0.008428983 0.06752523
0.017693117 0.046885137 0.024417423 -0.07436157 0.024078228 0.046598498 0.06875824 -0.10314071
0.059705257 -0.16981368 0.05409762 -0.09981031 0.08939654 0.13951512 -0.081908025 -0.12913969
-0.020476757 -0.07025686 0.15355739 0.07571432 -0.15611583 -0.026328178 0.06080853 -0.045272227
-0.029089652 0.045865327 0.052024394 -0.11668006 -0.02333812 0.13552462 -0.016758408 0.07018691
-0.1601531 -0.039273567 -0.15044922 -0.10505094 -0.00062946655 0.0071462593 -0.07289238 -0.03614567
0.036245517 -0.07166371 -0.08796487 0.08583564 -0.03673854 -0.09983958 0.07508402 -0.011215498
0.012479485 -0.076751344 -0.08027002 0.005544108 0.034984633 -0.06687767 0.058625683 0.040609
0.0045312704 0.096124575 0.16691639 -0.036758617 -0.0763769 0.022905122 0.0532133 0.15836719
00000000: 605a b7bd 4d8a 3cbd f666 c13a 12ac 133e
00000010: b131 dc3c 4cb0 093e d8d3 44bc 81f2 ce3c
00000020: e12c 0fbd f80d 56bd f89d 88bd e29a 54bc
00000030: 0983 99bc 028a ad3d d0ec d43d 2ba4 64be
00000040: 7ee8 6c3c 9999 bdbd ed51 95bb c449 5c3e
00000050: 17bc b3bd 411b 1abc cae4 933d 2722 b0bd
00000060: 7d11 84bd 3d90 57bd 6d12 4a3d 2913 a43d
00000070: 951c 9c3d 77f0 dd3c 9e14 fe3d 2765 dd3d
00000080: a536 d7bc 12d1 f53c 5c83 b33d f3b2 043e
00000090: 9e86 5abd f9db b43d 835c d03c 6ed7 ab3d
000000a0: 6be5 713d 242a 37be 351f 34bc 8b73 4cbd
000000b0: e9f4 a4bc 87b1 f3ba f534 163e debb f33c
000000c0: 5569 ecbc a56a dabd 3506 f4bd 466b a6bd
000000d0: a616 833d 8ef0 d4bc 2882 95bc 15a1 8d3d
000000e0: 0c88 25be f52c 9ebc ac8c 11be dca2 ed3d
000000f0: 40db ba3d 045c f03d 24e5 11be 3c5d cc3d
00000100: 7caf 85bd 6f4a b83b d91d a13c df8d f63d
00000110: d34a 633b 8bff cf3c 340e b93d 27fa 47bd
00000120: fc01 1abd 76f6 debc 58a8 d1bc 7bb5 87bd
00000130: e62a b23d 4c02 17be ec6b 4a3d 4e76 3c3b
00000140: 85f3 93bc d2b4 ef3d e170 3cbd 38d8 4fbd
00000150: 949a ce3d d748 333e f561 26be 85d6 cbbd
00000160: 13b0 95bb cafe 7dbd ddb7 293c 4d61 91bd
00000170: 3602 06bd 1be9 e63d eb81 d6bc 083d e93d
00000180: f653 35be 99cf b5bd 85f8 e9bd 4a83 d2bd
00000190: adbf fd3c a50f e83d 2f10 963c d5db 3b3d
000001a0: b6b7 2c3d 933a 6ebd 0caa ecbd dae3 c9bc
000001b0: 1bc2 9dbd d006 bfbd 7f6a e33c ca6a 7e3d
000001c0: 35c6 c5bd 6d0b 28bc 51c8 35be 8249 f03c
000001d0: 614f 25be b96e b9bd 3eb9 64be 9f2d 0b3d
000001e0: c348 073c 1ac7 fcbc 95c6 0abe 5be3 313d
000001f0: 43cb fd3d 5b9b b1bc 0541 83bd bc22 0d3d
00000200: 5318 5d3d 76c4 543d faa1 b0bd b4d4 ffbc
00000210: 5e2e 3abd 6f25 4e3d 23c3 11bd 96e0 38bc
00000220: 28b2 98bc c2a6 5ebd 76b3 fc3d 26f3 7dbd
00000230: 63d3 c0bc 1ab3 9fbd 334c a8bd 9c77 9fbd
00000240: 0f8a e33d 674d 6e3d 9dea c1bd 7bfa 353e
00000250: 93c3 233c ad9f de3d 5b68 9f3d 5910 02bd
00000260: 1472 183d 0f00 ea3b 3397 b93c e287 68be
00000270: 15c8 643c 404e b03c 677d ce3d c71e 793d
00000280: 1f7c 103d 0c47 053e 3014 b53d 05e0 07bc
00000290: f9f6 cb3d dfff 2ebc a52d 853d 3a03 bcbc
000002a0: d448 a5bd a3a2 2e3e fa8d d3bd ba38 abbd
000002b0: 653e 3c3d 6824 283c 6b38 903d b4ee a4bb
000002c0: d497 8abd d816 d83c 8aad 903d eb0c 4dbd
000002d0: 7be5 d23d 439f 1e3e 9c3e 77be 30e5 8dbd
000002e0: 6306 7fbc 41d2 9cbc 62b6 8fbc 7640 f93d
000002f0: 3ce9 903d 2f2d febd b819 0abc ab4a 8a3d
00000300: 28f1 903c a10a 403d 0c07 c83c e14a 98bd
00000310: b43f c53c 11de 3e3d 1fd1 8c3d 703b d3bd
00000320: 808d 743d a3e3 2dbe 7795 5d3d 5969 ccbd
00000330: 8815 b73d 0ddd 0e3e 65bf a7bd 323d 04be
00000340: dfbe a7bc d4e2 8fbd 263e 1d3e 1c10 9b3d
00000350: d4dc 1fbe 31ae d7bc 5d12 793d 5f6f 39bd
00000360: 6c4d eebc 48dd 3b3d 8817 553d f5f5 eebd
00000370: 962f bfbc f7c6 0a3e ee48 89bc 28be 8f3d
00000380: 2dff 23be 52dd 20bd 5c0f 1abe f224 d7bd
00000390: c902 25ba 2b2b ea3b 9a48 95bd 7b0d 14bd
000003a0: 2e76 143d 6cc4 92bd ed26 b4bd 99ca af3d
000003b0: 277b 16bd b278 ccbd a7c5 993d 35c1 37bc
000003c0: c176 4c3c cf2f 9dbd 9c64 a4bd 59ab b53b
000003d0: 0c4c 0f3d 29f7 88bd 7c21 703d 9f55 263d
000003e0: 0d7b 943b f6dc c43d 21ec 2a3e 3490 16bd
000003f0: 7e6b 9cbd 86a3 bb3c 30f6 593d 022b 223e

encoder.lin1.bias f4 [96]
-0.0017641167 -0.0017135369 -0.001471218 0.0018497867 -0.0017261482 0.0014093651 -0.0017731908 -0.0009942577
0.0015624948 -0.0017297239 0.00019510624 -0.0016478201 -0.0017128398 -0.0016953482 0.001247649 0.001289487
0.0016886713 -0.001034626 0.0018663537 0.0019580715 -0.0013899872 0.001660331 -0.0016832331 0.00025278667
0.00035496554 -0.0015782672 -0.0017954402 -0.0019635935 0.0009876415 -0.0003691046 -0.0017362003 -0.0009520261
0.0012446109 0.00032600152 -0.0019311686 -0.001739355 4.9497092e-05 -0.0019044899 -0.0014113421 0.00047710937
0.0013670337 0.0017067828 -0.0018867766 0.0016444845 0.0018064957 -0.0018164489 0.0011358679 0.00043371462
-0.0014977262 -0.0014424087 -0.0018979199 0.0018067801 0.001664854 0.0011548144 0.0018509523 -0.001687705
0.0018366292 -0.0016892264 0.0019939712 -0.0015765962 0.001327415 -0.0009811127 0.0015197338 -0.0011736479
0.0015425152 -0.0014939327 0.0016833385 -0.0017704521 0.0018076915 0.0011911934 0.0017616596 -0.0009459184
-0.0013354548 0.0015048323 -0.0013806454 -0.0015338446 0.0012691357 -0.0017093614 0.0016678101 0.0018562038
0.0019363756 -0.0017848703 -0.0013244654 0.0007290759 0.0016029227 0.00059203705 0.0018646447 0.0012910991
-0.0011832139 -0.0012806357 0.0014693115 0.0018318207 0.0016512206 -0.001516697 -0.0008925789 0.0017974155
00000000: ef39 e7ba c298 e0ba e2d5 c0ba 8b74 f23a
00000010: ec3f e2ba 72ba b83a 696a e8ba c151 82ba
00000020: a0cc cc3a e7b7 e2ba 6f95 4c39 abfb d7ba
00000030: 5e81 e0ba 7236 deba 2788 a33a 0104 a93a
00000040: 6856 dd3a 4a9c 87ba 70a0 f43a fd52 003b
00000050: 3b30 b6ba 779f d93a ee9f dcba 7488 8439
00000060: ab1a ba39 dcdd ceba fa54 ebba a2af 00bb
00000070: c073 813a 6184 c1b9 3791 e3ba 6491 79ba
00000080: 3622 a33a 2feb aa39 441f fdba 12fb e3ba
00000090: 199b 4f38 14a0 f9ba c8fc b8ba 8924 fa39
000000a0: 0a2e b33a 21b6 df3a b84d f7ba be8b d73a
000000b0: f0c7 ec3a e915 eeba 67e1 943a 3164 e339
000000c0: 5a4f c4ba 340f bdba a0c3 f8ba 7bd1 ec3a
000000d0: 3b37 da3a 245d 973a a79b f23a fc35 ddba
000000e0: 0dbb f03a 0869 ddba 49ad 023b caa5 ceba
000000f0: a8fc ad3a ae98 80ba ce31 c73a 17d5 99ba
00000100: 392e ca3a 10d0 c3ba 78a3 dc3a 840e e8ba
00000110: 10f0 ec3a d121 9c3a 7de7 e63a 82f7 77ba
00000120: 6d0a afba cb3d c53a c6f6 b4ba 490b c9ba
00000130: 2159 a63a a70c e0ba 6c9a da3a dd4b f33a
00000140: fccd fd3a 4ff2 e9ba af99 adba 751f 3f3a
00000150: 2919 d23a ef32 1b3a 1867 f43a 193a a93a
00000160: 1216 9bba 01db a7ba ea95 c03a b419 f03a
00000170: c56d d83a e8cb c6ba f5fb 69ba 4297 eb3a

encoder.lin2.weight f4 [64, 96]
-0.0017437222 -0.062199403 0.12933108 0.010285599 -0.095211074 -0.040242698 0.18040243 0.04292409
-0.18774045 0.085497834 -0.08953179 -0.03714789 0.08222918 -0.03345895 -0.10535584 0.022488067
-0.17290092 -0.0058880537 -0.17434108 0.0027648485 0.12726891 0.049702335 -0.09841373 0.02266249
0.107462145 0.0642173 -0.13496938 0.025810981 -0.017554598 -0.11980584 0.22418171 0.13680346
0.028170228 0.12173185 -0.16321859 0.15142353 -0.043434735 0.2655158 0.02169694 0.018938165
-0.17629848 -0.03795246 0.15473942 0.06861106 -0.106967375 0.15776388 -0.049222443 -0.11345657
0.09171418 0.1838 0.12747978 0.30886534 -0.034145728 0.07999552 -0.13168684 0.23301992
-0.050479174 0.062222764 0.17402895 -0.0029823184 -0.08144896 -0.014172524 -0.057812177 -0.09706563
0.030685855 -0.016807593 -0.006949507 0.2190335 0.0005067098 -0.09024479 -0.03966844 -0.04817504
0.013401614 -0.05329319 -0.10711393 0.07755816 0.03609589 0.1325377 0.06313586 -0.24880806
-0.060037944 0.017562898 0.056150213 -0.02838178 0.03869821 -0.033140846 -0.12293409 0.034654126
0.10815813 0.15386085 -0.00419309 -0.07537525 -0.021609245 0.17427061 0.19091687 -0.03768498
-0.14487234 -0.028361516 -0.024636034 -0.2627455 0.15375741 0.14522219 -0.13693884 -0.045171347
0.07588412 -0.055219784 0.079795346 0.2504677 -0.037101284 0.052944165 0.0032069045 -0.038590994
-0.084990464 -0.04644398 -0.18153894 -0.053953942 0.11558441 0.20498104 0.009151733 -0.27306718
-0.12852967 -0.03605814 0.16449831 0.016249051 -0.14578083 0.061314546 -0.061702084 0.0095380815
0.12320057 0.0248284 0.0070984866 -0.109023236 -0.036756653 0.09632266 -0.07653132 -0.07438354
-0.058583766 0.0065284153 -0.11383233 -0.24194655 -0.21019652 -0.26099858 -0.14458102 -0.08902324
-0.07115319 -0.0010480906 -0.07129423 -0.23030083 0.10959328 0.003196586 -0.026586764 0.023876138
0.11025108 -0.021963824 0.1628991 -0.017104171 -0.16617611 -0.07062052 0.079860754 0.028755762
0.11282744 0.09102462 -0.037439026 -0.077589236 -0.05659407 0.21606666 0.101873234 0.12621139
-0.12948108 0.0074451067 0.036333695 -0.03284467 0.017494412 0.11012051 -0.12956479 -0.133732
-0.08515159 0.121386506 0.08270412 -0.11613463 0.01569812 -0.13801529 0.19463745 -0.07555302
0.07704528 -0.06709407 0.023740401 -0.04329245 -0.078168176 -0.031590786 -0.15339683 -0.10138469
0.058795225 0.06296043 -0.12789565 -0.030810224 0.17682464 0.14354849 0.06108797 0.20569748
0.17874213 0.041452926 -0.059568513 0.20992652 0.017408997 0.11801506 -0.08441687 0.019874
0.18317561 0.050873794 -0.061303858 0.17636113 0.008484646 0.16219056 -0.008187882 -0.12609604
0.04615323 0.06322065 -0.20066953 -0.24246949 0.07598147 -0.02413309 0.20366968 -0.156868
0.01776453 0.037226178 0.19413804 -0.076135695 -0.051483694 0.0009974635 0.06284771 -0.009329976
0.13100086 -0.23760065 0.060830683 -0.035308428 0.013228933 0.11979916 0.02790853 0.036191422
-0.012884307 0.08924411 0.04788835 -0.028083054 0.061003678 -0.038399126 -0.042236548 0.1301704
-0.10899716 0.14347821 0.18733586 -0.11088868 0.044949893 0.019681042 0.026356766 0.024320379
00000000: 9c8d e4ba cdc4 7ebd 5e6f 043e ee84 283c
00000010: 06fe c2bd 87d5 24bd 6abb 383e 2cd1 2f3d
00000020: 083f 40be 7d19 af3d 715c b7bd 6328 18bd
00000030: c667 a83d 410c 09bd cdc4 d7bd e538 b83c
00000040: f00c 31be 93f0 c0bb 7886 32be 7632 353b
00000050: c852 023e ad94 4b3d 238d c9bd b0a6 b93c
00000060: 1d15 dc3d 5c84 833d 6a35 0abe 8d71 d33c
00000070: a9ce 8fbc c45c f5bd e48f 653e 3516 0c3e
00000080: 40c5 e63c 8c4e f93d c622 27be c50e 1b3e
00000090: 9fe8 31bd b0f1 873e c8bd b13c 3624 9b3c
000000a0: 9787 34be 0a74 1bbd 0374 1e3e f583 8c3d
000000b0: b611 dbbd db8c 213e 799d 49bd eb5b e8bd
000000c0: a5d4 bb3d 1136 3c3e 0f8a 023e 9923 9e3e
000000d0: 64dc 0bbd b1d4 a33d ead8 06be c69c 6e3e
000000e0: 40c3 4ebd 4cdd 7e3d a534 323e 0073 43bb
000000f0: b6ce a6bd e033 68bc 76cc 6cbd 58ca c6bd
00000100: e760 fb3c 14b0 89bc b1b8 e3bb 514a 603e
00000110: b8d4 043a 43d2 b8bd 607b 22bd 3153 45bd
00000120: 7192 5b3c f649 5abd 8c5e dbbd d0d6 9e3d
00000130: 49d9 133d f6b7 073e 604d 813d 8ac7 7ebe
00000140: 59ea 75bd 11e0 8f3c c4fd 653d e880 e8bc
00000150: 0482 1e3d b2be 07bd dec4 fbbd 7cf1 0d3d
00000160: 0282 dd3d b38d 1d3e 3066 89bb 575e 9abd
00000170: df05 b1bc ff73 323e b67f 433e 915b 1abd
00000180: 6a59 14be 6956 e8bc 82d1 c9bc 9486 86be
00000190: 9572 1d3e 20b5 143e b239 0cbe 9705 39bd
000001a0: 2269 9b3d 242e 62bd be6b a33d 4d3d 803e
000001b0: 84f7 17bd fbdb 583d ee2a 523b 9711 1ebd
000001c0: 7b0f aebd 0b3c 3ebd 58e5 39be cffe 5cbd
000001d0: 85b7 ec3d 8de6 513e 26f1 153c 76cf 8bbe
000001e0: 489d 03be b3b1 13bd 3f72 283e bb1c 853c
000001f0: 9247 15be f624 7b3d 53bb 7cbd 9d45 1c3c
00000200: 9550 fc3d ee64 cb3c 6c9a e83b 9347 dfbd
00000210: 258e 16bd d144 c53d 74bc 9cbd 6656 98bd
00000220: 88f5 6fbd 51ec d53b ed20 e9bd d6c0 77be
00000230: c23d 57be 9ba1 85be 0c0d 14be d151 b6bd
00000240: c4b8 91bd 1660 89ba b602 92bd fbd3 6bbe
00000250: 7172 e03d d07d 513b 7ccc d9bc e497 c33c
00000260: 51cb e13d 7aed b3bc 06cf 263e 0c1e 8cbc
00000270: 122a 2abe 7ea1 90bd 098e a33d 3491 eb3c
00000280: 1312 e73d 1e6b ba3d aa59 19bd 1be7 9ebd
00000290: 2fcf 67bd 9440 5d3e eaa2 d03d 8f3d 013e
000002a0: b096 04be 15f6 f33b a4d2 143d 2288 06bd
000002b0: 7150 8f3c dd86 e13d a2ac 04be 0bf1 08be
000002c0: f563 aebd 7d99 f83d c760 a93d fed7 edbd
000002d0: 5899 803c e153 0dbe 0a4f 473e 8bbb 9abd
000002e0: eac9 9d3d 9e68 89bd 3b7b c23c 6d53 31bd
000002f0: a316 a0bd 5765 01bd 0f14 1dbe c7a2 cfbd
00000300: 43d3 703d 66f1 803d 14f7 02be b965 fcbc
00000310: 8511 353e 60fe 123e 6137 7a3d 5ca2 523e
00000320: 2d08 373e 8bca 293d 1dfe 73bd faf6 563e
00000330: 509d 8e3c e1b1 f13d c0e2 acbd cdce a23c
00000340: 6392 3b3e 0a61 503d c119 7bbd 0398 343e
00000350: 2f03 0b3c 4815 263e 7726 06bc 521f 01be
00000360: 2b0b 3d3d d479 813d 507c 4dbe ec49 78be
00000370: 2c9c 9b3d c2b2 c5bc c98e 503e 01a2 20be
00000380: eb86 913c 7a7a 183d 1fcc 463e 08ed 9bbd
00000390: 91e0 52bd 52bd 823a 4db6 803d c1dc 18bc
000003a0: 1725 063e 964d 73be 9829 793d 929f 10bd
000003b0: 2bbe 583c 4359 f53d 6ea0 e43c 753d 143d
000003c0: b318 53bc 9ec5 b63d 9326 443d 6f0e e6bc
000003d0: fede 793d 6748 1dbd 3b00 2dbd 644b 053e
000003e0: e739 dfbd f4eb 123e f9d4 3f3e 9b19 e3bd
000003f0: 611d 383d 233a a13c 25ea d73c 883b c73c

encoder.lin2.bias f4 [64]
-0.0017475999 -0.000996762 -0.0018978943 -0.0011599081 0.0011560032 0.0016802939 -0.00039486837 0.0010081732
-0.0017053466 0.0017660604 -0.0015944045 -0.0006049463 0.0015500125 0.0019139573 -0.0019258007 0.00025295815
0.00026825795 0.0019679454 0.001955304 0.001081976 0.0018558586 -0.001403559 -0.0019116437 -0.0007638238
0.0018543693 -0.0019341279 0.00041403668 -0.0018615297 -0.00086258195 0.0017538752 0.0016397306 -0.0015542725
-0.0012044067 0.0006420746 0.001005567 0.001765498 -0.0016599413 -0.001647059 0.0018691038 0.001228282
-0.0017690425 0.0011837838 0.0018776559 -0.0009577665 -0.00037139014 0.0016340764 0.0012815885 -0.0018761435
0.0013535337 -0.0017496129 0.0018261136 -0.0017123668 0.0011640881 -0.0017482539 0.00069914025 -0.00057864864
-0.0017089418 0.0015222952 -0.0019196343 -0.000880741 -0.0016733425 0.0017820533 0.0017276462 -0.0014004436
00000000: b90f e5ba c8a5 82ba c4c2 f8ba 0f08 98ba
00000010: 0885 973a 4f3d dc3a 5606 cfb9 ae24 843a
00000020: f085 dfba 277b e73a 56fb d0ba 4295 1eba
00000030: ca29 cb3a c0dd fa3a 266b fcba 789f 8439
00000040: f9a4 8c39 a5f8 003b 8f24 003b 17d1 8d3a
00000050: 4840 f33a a0f7 b7ba 1e90 faba 593b 48ba
00000060: 4f0e f33a 9082 fdba 1013 d939 92fe f3ba
00000070: e51e 62ba 49e2 e53a 3bec d63a bbb8 cbba
00000080: 2fdd 9dba e650 283a 3bcd 833a 4868 e73a
00000090: 6392 d9ba 21e2 d7ba b7fc f43a 4efe a03a
000000a0: 37df e7ba 3129 9b3a ad1b f63a 9f12 7bba
000000b0: 24b7 c2b9 812e d63a f9fa a73a eee8 f5ba
000000c0: 0e69 b13a 4453 e5ba 345a ef3a 7f71 e0ba
000000d0: 5194 983a ab25 e5ba 8246 373a 74b0 17ba
000000e0: 92fe dfba c087 c73a 3d9c fbba 87e1 66ba
000000f0: 0f54 dbba c993 e93a 3072 e23a 178f b7ba

encoder.lin3.weight f4 [48, 64]
-0.15232788 -0.013222882 0.13163342 -0.030797811 0.06829639 -0.25911972 0.19922133 0.053442772
0.029807128 -0.10908438 0.0028494147 0.086801685 0.06479278 0.17090288 -0.14827068 0.04469037
-0.06748387 -0.10992228 0.16977344 0.1366496 0.024618167 -0.04465931 -0.17693958 -0.04174081
0.19733235 -0.11856823 -0.1768472 0.04244615 -0.129222 -0.123495966 0.07730132 0.016583372
0.05969534 0.11744619 -0.039504275 -0.09411421 -0.042178866 -0.24600852 -0.056669194 -0.15330389
-0.05276701 0.09807103 -0.11213513 0.025922796 0.06193958 0.057515573 0.16289482 -0.10731526
-0.0014250296 -0.11230912 -0.08600698 0.12403732 -0.101111375 0.05147791 0.14254372 -0.02703087
-0.24308728 -0.055537447 -0.0977053 0.058662888 -0.07380108 -0.19538224 0.19137971 0.0155505845
-0.039038092 0.018246535 0.013684174 -0.088807985 0.0437705 -0.19873402 -0.10585898 -0.029438034
0.06437651 -0.17928642 -0.057777453 0.044833817 -0.015977846 -0.15481932 -0.17675963 -0.24548946
-0.1363345 -0.17353405 0.035040468 0.16043921 -0.08553215 -0.115046754 0.021198727 -0.07476895
-0.050326873 0.2771408 0.030172097 0.20140198 0.08997072 0.15069708 -0.058979094 0.09914298
-0.018009724 -0.032447595 0.051762424 -0.12911381 -0.12932795 0.1489071 0.0918213 -0.24563749
0.001573778 -0.049738213 -0.16528143 0.053119335 -0.2581911 -0.03901965 -0.12388313 -0.058071665
-0.09589548 -0.30078614 -0.29601038 -0.13620006 -0.0074241366 -0.028241456 0.021951642 0.09203574
0.023260575 0.10671686 -0.11121023 -0.11352542 0.0874772 0.28842208 -0.1492312 -0.2418393
0.08561304 -0.052010555 -0.08490089 0.20731911 0.019345261 0.14581515 0.17186306 -0.24046493
0.122028336 0.03683466 0.07326305 -0.2248382 -0.09820946 -0.13868621 -0.024847569 -0.24070805
-0.045119848 0.0019373995 -0.057145335 0.0155947665 -0.14282328 -0.023358565 -0.012846575 0.002311379
-0.078775905 -0.045144122 -0.09432859 0.08043823 0.068865076 0.13222076 0.049764138 -0.19758996
-0.0018484745 -0.12423419 0.25430787 -0.19750735 0.045649588 -0.109882444 -0.024233188 -0.07359402
0.21261528 0.14268449 -0.16663012 -0.106612064 -0.061962694 0.055404544 0.04021515 -0.07676846
0.10090669 0.08905346 -0.07472976 0.019574858 0.023274092 -0.18149996 -0.015891047 -0.1857696
-0.034208078 -0.13329561 0.040275678 -0.07050218 0.22867246 -0.12713882 -0.024480836 0.12776291
-0.01969147 0.19560164 -0.05804337 0.033738535 -0.01193196 -0.15213633 -0.07336377 -0.14680137
-0.12701255 0.045638885 0.008680502 0.12060079 -0.1637234 -0.12574396 -0.12737182 -0.04239692
0.27355775 0.092025384 0.066860445 -0.016529357 -0.21396881 -0.07956126 0.256752 0.048937317
-0.09889232 0.011917428 -0.3366855 0.1403591 0.026674863 -0.11520936 0.33404747 -0.12692504
0.002063257 -0.13564074 -0.026128475 -0.04959879 0.03903019 0.10767772 -0.19102538 -0.12392999
0.06467634 -0.059153926 0.10138542 0.007992085 0.15433335 0.12887716 0.2238508 -0.07936839
-0.10806036 -0.13205616 0.02655765 -0.08462845 -0.060639333 0.029739596 0.04009824 0.15913387
0.22649619 -0.06852369 0.064429745 -0.00031963756 0.18957995 -0.011910641 -0.040950555 0.12189809
00000000: d7fb 1bbe c9a4 58bc e9ca 063e b14b fcbc
00000010: fade 8b3d 57ab 84be ad00 4c3e cfe6 5a3d
00000020: 142e f43c a267 dfbd 3fbd 3a3b 15c5 b13d
00000030: 14b2 843d 2a01 2f3e 45d4 17be 400d 373d
00000040: fc34 8abd ef1e e1bd 17d9 2d3e dfed 0b3e
00000050: 0aac c93c aeec 36bd a62f 35be 69f8 2abd
00000060: 7e11 4a3e e6d3 f2bd 6f17 35be 04dc 2d3d
00000070: c652 04be 74eb fcbd 2850 9e3d dad9 873c
00000080: 1a83 743d a187 f03d 3ccf 21bd f3be c0bd
00000090: bfc3 2cbd a8e9 7bbe f51d 68bd b2fb 1cbe
000000a0: 3822 58bd 77d9 c83d 1aa7 e5bd 0b5c d43c
000000b0: 5bb4 7d3d 7395 6b3d e6cd 263e 1ac8 dbbd
000000c0: 0fc8 baba 5302 e6bd 6d24 b0bd 4707 fe3d
000000d0: 7b13 cfbd 80da 523d fbf6 113e d86f ddbc
000000e0: dfeb 78be 3c7b 63bd b719 c8bd 7f48 703d
000000f0: 0525 97bd 4812 48be 0bf9 433e e1c7 7e3c
00000100: 68e6 1fbd c279 953c 9633 603c f6e0 b5bd
00000110: b248 333d ee80 4bbe 98cc d8bd 0828 f1bc
00000120: d5d7 833d dc96 37be 0da8 6cbd aaa3 373d
00000130: f9e3 82bc f588 1ebe 7a00 35be 9761 7bbe
00000140: 459b 0bbe e9b2 31be 9886 0f3d 2d4a 243e
00000150: 7b2b afbd a29d ebbd f4a8 ad3c 7720 99bd
00000160: 8d23 4ebd 66e5 8d3e 792b f73c 523c 4e3e
00000170: 9242 b83d 5650 1a3e 1094 71bd 7a0b cb3d
00000180: 2189 93bc c5e7 04bd d604 543d 6936 04be
00000190: 8c6e 04be 1a7b 183e ce0c bc3d 6588 7bbe
000001a0: 3a47 ce3a 4cba 4bbd 893f 29be a993 593d
000001b0: a031 84be 12d3 1fbd 70b6 fdbd 8edc 6dbd
000001c0: d964 c4bd a400 9abe ac8e 97be 0778 0bbe
000001d0: 2c46 f3bb a05a e7bc eed3 b33c 3c7d bc3d
000001e0: f68c be3c 5e8e da3d 30c2 e3bd 0480 e8bd
000001f0: 3f27 b33d 0fac 933e 10d0 18be b9a4 77be
00000200: e455 af3d 0509 55bd 85e0 adbd 764b 543e
00000210: f479 9e3c 9150 153e dffc 2f3e 703c 76be
00000220: fee9 f93d f1df 163d f00a 963d fc3b 66be
00000230: 0b22 c9bd c203 0ebe 218d cbbc 2c7c 76be
00000240: 97cf 38bd 57f0 fd3a 3a11 6abd 3181 7f3c
00000250: 4440 12be 765a bfbc 717a 52bc 817a 173b
00000260: 4355 a1bd 0be9 38bd 592f c1bd ccbc a43d
00000270: 2209 8d3d e164 073e 7bd5 4b3d 0655 4abe
00000280: 8348 f2ba 7f6e febd a434 823e 5e3f 4abe
00000290: 10fb 3a3d 0c0a e1bd ae84 c6bc 76b8 96bd
000002a0: d2b7 593e e21b 123e 16a1 2abe 6d57 dabd
000002b0: 98cc 7dbd e0ef 623d a4b8 243d c838 9dbd
000002c0: 2ba8 ce3d a961 b63d eb0b 99bd 745b a03c
000002d0: 4fa9 be3c 20db 39be f12d 82bc 633a 3ebe
000002e0: c51d 0cbd a57e 08be 1cf8 243d 7263 90bd
000002f0: 1d29 6a3e ae30 02be 098c c8bc 48d4 023e
00000300: 0150 a1bc cc4b 483e e2be 6dbd 6b31 0a3d
00000310: 447e 43bc a0c9 1bbe bf3f 96bd 1953 16be
00000320: 940f 02be d7ef 3a3d aa38 0e3c 8cfd f63d
00000330: 1ba7 27be 06c3 00be c26d 02be 65a8 2dbd
00000340: c30f 8c3e ce77 bc3d 21ee 883d 9368 87bc
00000350: a41a 5bbe 04f1 a2bd 0075 833e 7f72 483d
00000360: 0f88 cabd 5141 433c 0b62 acbe 4cba 0f3e
00000370: 3e85 da3c e3f2 ebbd 4508 ab3e a3f8 01be
00000380: b537 073b 68e5 0abe 620b d6bc 1a28 4bbd
00000390: 1fde 1f3d 2386 dc3d 289c 43be 02cf fdbd
000003a0: 0775 843d 634b 72bd 29a3 cf3d 3cf1 023c
000003b0: 9009 1e3e 60f8 033e 2539 653e e58b a2bd
000003c0: c04e ddbd bb39 07be 6e8f d93c ae51 adbd
000003d0: f360 78bd 74a0 f33c 0d3e 243d fdf3 223e
000003e0: 9eee 673e 2656 8cbd bef3 833d 0795 a7b9
000003f0: 3f21 423e d924 43bc c5bb 27bd b5a5 f93d

encoder.lin3.bias f4 [48]
0.0018220088 -0.0017129799 -0.001935777 -0.0006473474 0.00047101604 0.0017625366 0.0019700727 -0.0008852418
-0.000697641 0.001857052 0.0019656688 -0.0002159528 -0.0018592151 -0.001319383 -0.0017842415 -0.0019245171
-0.001922945 0.0017879544 0.0018050275 -0.0019779343 0.001729716 -0.0008039297 -0.0019398985 0.0018264999
0.0016839736 0.0019777447 -0.0017820009 -0.0016465528 -0.0015445994 0.0016855012 0.001661938 -0.0016724787
-0.0013107804 0.0019061002 -0.00064079824 0.00081475714 -0.00078671833 -0.0015136795 0.0016898123 0.0019826887
0.0007679626 -0.0017332445 -0.00069274055 0.0018144135 -0.001963643 0.0014733687 0.001660573 0.0016003595
00000000: 78d0 ee3a 1186 e0ba e6b9 fdba c0b2 29ba
00000010: b4f2 f639 ea04 e73a 561c 013b 920f 68ba
00000020: e5e1 36ba 5368 f33a 73d2 003b 6371 62b9
00000030: e8b0 f3ba 26ef acba 36dd e9ba 1440 fcba
00000040: 540b fcba cb59 ea3a ac96 ec3a 3ba0 01bb
00000050: a3b7 e23a cfbe 52ba 3144 feba 2b67 ef3a
00000060: c7b8 dc3a 0d9d 013b 0792 e9ba 25d1 d7ba
00000070: 2874 caba 09ec dc3a 63d5 d93a 1337 dbba
00000080: 7ece abba 1cd6 f93a 3efb 27ba 6d95 553a
00000090: c63b 4eba a866 c6ba b17c dd3a ffef 013b
000000a0: 1951 493a 092e e3ba 0899 35ba 9dd1 ed3a
000000b0: 76b0 00bb 0d1e c13a 95a7 d93a 27c3 d13a

decoder.lin0.weight f4 [48, 96]
0.0023910017 -0.16172443 0.059668824 0.13725935 0.069161594 0.08546227 -0.30276734 0.17099683
-0.11277965 -0.18608639 -0.24103135 -0.06583073 0.18740687 0.021780621 0.023512563 -0.1552137
-0.0400804 -0.13363956 -0.09833846 -0.055621628 -0.051649287 -0.03403907 -0.05749614 0.002697449
0.052684072 -0.12242461 0.10385108 -0.08134048 -0.109765306 -0.21678405 -0.1576516 0.13538018
0.0936699 -0.07323611 -0.1776976 -0.093312845 -0.07832678 0.106811605 0.0683322 -0.010013804
0.08659282 0.063194916 -0.04441604 -0.073574096 0.09329557 0.14787394 0.03557363 0.102724105
0.13736658 -0.19473374 0.09450958 0.1534498 -0.1141262 0.053277355 -0.113242984 0.06655282
0.057494003 0.033433072 -0.20601851 0.063871905 0.12529783 -0.01174343 -0.23676325 0.0042024525
-0.20778374 -0.11878048 -0.1299336 0.010311335 0.104040824 -0.087794594 0.002458748 -0.010718639
-0.09065975 0.009324794 -0.17449561 0.030165585 0.031897724 -0.07475992 0.15662768 0.17232062
0.031724468 -0.008667068 0.08202903 -0.0051839952 0.1693875 -0.22032367 -0.04895719 -0.06801861
-0.2768503 0.27875987 -0.06101252 0.26704386 0.046163194 0.14357257 -0.11736575 -0.03227097
0.12543452 0.09660535 0.028926112 0.13496783 -0.003044961 0.025915429 0.10073688 -0.065448016
0.25865775 0.11938911 -0.1556289 0.019111399 0.14155343 -0.031261418 0.04176079 0.03599306
0.019168839 -0.015499609 -0.023298776 0.042301808 0.095469974 0.033012684 -0.18725075 -0.08020205
-0.10719649 0.15899913 -0.07490436 -0.11853346 -0.043918066 -0.13698164 0.061448216 0.06636219
0.17966454 -0.12686698 -0.014049327 0.06552046 0.010058763 0.21512508 -0.09902997 -0.06862213
-0.18746588 0.024960738 0.012833345 -0.07239599 -0.01988084 0.2405259 0.032379884 0.046794556
0.07316483 -0.0044538705 -0.059244744 -0.09864219 0.06251942 -0.23609552 -0.058938187 0.060838163
0.07620092 -0.077512145 -0.048539754 -0.0044567133 0.0025707968 -0.0033294712 -0.07708141 0.1452989
0.18703012 0.090427026 0.02605689 0.1851489 -0.033460233 0.052140653 0.13008468 -0.17404108
0.16647187 0.02509176 0.09747211 -0.054844465 -0.054046426 0.13253804 -0.011989969 -0.07650132
-0.0341993 0.06716589 0.052018117 0.010815333 -0.16296895 -0.025318397 -0.037497576 0.15899552
-0.052444614 0.06608828 -0.18675956 -0.13555428 -0.0068104183 -0.0019456756 0.009096754 0.09610888
-0.15640523 0.013969337 0.11949631 0.085940056 0.048793588 -0.13119897 -0.08744644 -0.06889941
-0.06465329 -0.019180076 -0.00935983 0.31524518 -0.16037756 -0.035820976 -0.16128053 0.012635438
0.18238539 0.1898091 -0.083305046 -0.15014516 0.1109031 0.058475886 -0.09584767 -0.050004125
0.1139854 -0.07932156 0.18681368 0.20814188 0.041206427 -0.015866872 0.2754266 -0.08589672
0.016905863 0.0120573975 0.061753266 -0.12521175 0.0396493 -0.1939769 -0.06166276 0.03992732
-0.02354008 0.09437209 0.20313348 -0.1046185 0.08972396 -0.006518779 0.08055436 0.18615176
0.30291685 -0.1937046 0.025670767 -0.13624659 -0.3286132 0.060092688 -0.14263827 0.064534165
-0.18874685 -0.06619971 0.12892458 -0.097388804 -0.03389334 -0.17301962 -0.1772163 0.13571912
00000000: 5ab2 1c3b 179b 25be 4c67 743d b78d 0c3e
00000010: 98a4 8d3d d806 af3d 5204 9bbe cb19 2f3e
00000020: 04f9 e6bd 6e8d 3ebe ecd0 76be 43d2 86bd
00000030: 96e7 3f3e 466d b23c 6b9d c03c 57f0 1ebe
00000040: 582b 24bd cfd8 08be ad65 c9bd 81d3 63bd
00000050: 348e 53bd 8d6c 0bbd 1381 6bbd afc7 303b
00000060: 41cb 573d c1b9 fabd e0af d43d d695 a6bd
00000070: a2cc e0bd a3fc 5dbe 6c6f 21be 1aa1 0a3e
00000080: 01d6 bf3d d0fc 95bd 5cf6 35be ce1a bfbd
00000090: ca69 a0bd 0bc0 da3d c1f1 8b3d f010 24bc
000000a0: 9457 b13d 566c 813d 98ed 35bd 04ae 96bd
000000b0: bf11 bf3d 446c 173e a8b5 113d 0461 d23d
000000c0: d3a9 0c3e 4868 47be 3d8e c13d f221 1d3e
000000d0: ffba e9bd 5b39 5a3d f0eb e7bd d84c 883d
000000e0: d57e 6b3d 1ef1 083d 84f6 52be 46cf 823d
000000f0: 134e 003e 8467 40bc 1172 72be bab4 893b
00000100: 43c5 54be 2e43 f3bd 500d 05be e0f0 283c
00000110: 5b13 d53d a7cd b3bd f222 213b 3b9d 2fbc
00000120: d2ab b9bd 05c7 183c faae 32be d11d f73c
00000130: 30a7 023d bb1b 99bd 0263 203e d174 303e
00000140: 84f1 013d 5100 0ebc d6fe a73d 81de a9bb
00000150: eb73 2d3e 879c 61be 5687 48bd 574d 8bbd
00000160: 53bf 8dbe 9db9 8e3e 44e8 79bd f9b9 883e
00000170: 9e15 3d3d b004 133e 745d f0bd 912e 04bd
00000180: e871 003e 07d9 c53d 74f6 ec3c 0235 0a3e
00000190: f88d 47bb 984c d43c 234f ce3d 9c09 86bd
000001a0: ca6e 843e 4782 f43d 2f5d 1fbe 828f 9c3c
000001b0: 62f3 103e f90b 00bd 5d0d 2b3d 756d 133d
000001c0: f807 9d3c 12f2 7dbc 13dd bebc a944 2d3d
000001d0: c385 c33d 4f38 073d a9be 3fbe f940 a4bd
000001e0: d589 dbbd abd0 223e 7567 99bd acc1 f2bd
000001f0: 6ee3 33bd ea44 0cbe 20b1 7b3d e6e8 873d
00000200: fbf9 373e 6be9 01be 262f 66bc 972f 863d
00000210: 83cd 243c c049 5c3e 3ad0 cabd c289 8cbd
00000220: 0ef7 3fbe 767a cc3c f342 523c 5944 94bd
00000230: 25dd a2bc 6c4c 763e c5a0 043d a6ab 3f3d
00000240: 71d7 953d c6f1 91bb 9eaa 72bd eb04 cabd
00000250: 2f0a 803d 06c3 71be 2b69 71bd 7031 793d
00000260: 3a0f 9c3d b0be 9ebd 9fd1 46bd 9f09 92bb
00000270: d07a 283b 4233 5abb dcdc 9dbd 3cc9 143e
00000280: d384 3f3e ce31 b93d 4275 d53c ac97 3d3e
00000290: 990d 09bd 7091 553d eb34 053e d337 32be
000002a0: 9a77 2a3e 3c8d cd3c 759f c73d 97a4 60bd
000002b0: c95f 5dbd 0db8 073e 9371 44bc b9ac 9cbd
000002c0: 9114 0cbd 458e 893d f310 553d cb32 313c
000002d0: 55e1 26be 8768 cfbc 0f97 19bd b9cf 223e
000002e0: 2ad0 56bd 4b59 873d e63d 3fbe bece 0abe
000002f0: ee29 dfbb 0a06 ffba 8d0a 153c bcd4 c43d
00000300: b128 20be a5df 643c 7bba f43d 5701 b03d
00000310: c9db 473d 0659 06be 1e17 b3bd 221b 8dbd
00000320: f268 84bd 891f 9dbc f959 19bc d167 a13e
00000330: 043a 24be 04b9 12bd b926 25be de04 4f3c
00000340: 3cc3 3a3e 515d 423e d69b aabd a7bf 19be
00000350: 2a21 e33d 6984 6f3d c94b c4bd 20d1 4cbd
00000360: 2d71 e93d 5873 a2bd 164c 3f3e 2523 553e
00000370: 12c8 283d 3efb 81bc b704 8d3e 9fea afbd
00000380: 2a7e 8a3c 648c 453c fef0 7c3d 8237 00be
00000390: 4e67 223d e1a1 46be 1792 7cbd d48a 233d
000003a0: 20d7 c0bc 2846 c13d 3902 503e 3942 d6bd
000003b0: 32c1 b73d 7b9b d5bb aff9 a43d 919e 3e3e
000003c0: eb17 9b3e 805a 46be 804b d23c 3a84 0bbe
000003d0: fd3f a8be c023 763d c40f 12be 7d2a 843d
000003e0: db46 41be b793 87bd ce04 043e c873 c7bd
000003f0: bed3 0abd 0e2c 31be 3178 35be f4f9 0a3e

decoder.lin0.bias f4 [48]
-0.0018933736 -0.0014870221 -0.0010946596 -0.001831157 0.0019313822 0.0011198262 0.0017685073 0.0014698498
0.0016172045 -0.0014966427 -0.0017846829 -0.00079728314 0.0017097781 0.0018280033 -0.0018512404 0.0007269416
-0.001699475 0.0019122767 -0.0013736739 0.0014215488 0.0019772735 0.0019147435 0.0014010973 -0.00190716
-0.0012185181 -0.0017260517 -0.0015947802 0.000167722 0.0018395617 0.0005280612 -0.001758326 0.0012734492
0.0018577267 -0.0013029157 0.0017015007 0.0010971557 -0.0010818904 -0.001761819 9.511563e-05 -0.0019015159
-0.0010151358 -0.0015229316 -0.00016198179 0.001959492 0.0019035311 -0.0005552212 0.0019816952 0.001951884
00000000: 132b f8ba 2fe8 c2ba ae7a 8fba 6f03 f0ba
00000010: 6f26 fd3a 22c7 923a 42cd e73a faa7 c03a
00000020: 61f8 d33a ff2a c4ba 05ec e9ba c400 51ba
00000030: a21a e03a 9d99 ef3a 52a5 f2ba 3a90 3e3a
00000040: ebc0 deba 5ca5 fa3a d90c b4ba 4353 ba3a
00000050: 2595 013b 21f8 fa3a 06a5 b73a acf9 f9ba
00000060: afb6 9fba af3c e2ba f207 d1ba 88de 2f39
00000070: 731d f13a 966d 0a3a a177 e6ba dde9 a63a
00000080: f77e f33a 99c6 aaba e404 df3a 70ce 8f3a
00000090: 38ce 8dba d6ec e6ba d178 c738 493c f9ba
000000a0: 4e0e 85ba 1b9d c7ba a8d9 29b9 d26a 003b
000000b0: e87f f93a 448c 11ba 54df 013b 5cd6 ff3a

decoder.lin1.weight f4 [48, 48]
-0.0927505 0.25642973 -0.044616476 0.19809827 0.10794631 -0.045430504 0.1719548 0.13075335
-0.22056544 0.10272745 0.3962555 0.025490914 0.08566277 0.021993643 -0.088970624 -0.12537758
0.18312831 -0.031977616 0.08777937 -0.18971306 0.11835339 0.16359225 0.042394485 -0.33882263
0.07325903 -0.07240225 -0.10628727 0.100719005 0.047604814 -0.007872814 -0.19856305 0.07274181
0.056377057 -0.13291419 -0.24047154 0.09468235 -0.06374207 -0.07220904 -0.11495127 0.22997168
-0.24396877 0.18835996 0.33077458 0.14364275 -0.04572657 -0.23189844 0.015970979 -0.0056581907
0.054113384 -0.24740842 0.2405795 -0.10974749 -0.0039057299 0.030125925 -0.0570305 0.020882096
0.015317364 -0.20942205 -0.2687781 0.030382382 0.0051526567 0.052894056 0.1512926 0.09835864
-0.21672371 0.07902022 0.067567594 0.009464839 -0.052667677 -0.26024726 0.10122866 -0.09752744
0.013863606 -0.01752553 -0.08006002 0.023840798 0.067500465 0.19214366 -0.049799636 -0.00849739
-0.119423695 -0.18229344 0.08193541 -0.066792786 -0.052599177 0.07589245 -0.10566522 0.10274215
0.021482458 0.15201215 0.19059992 -0.15202108 0.18912297 0.14981008 0.24287117 -0.27903378
0.119931445 0.01768964 -0.18503305 0.14913225 0.040461246 0.14071235 -0.090244174 -0.1774059
0.058572028 -0.11858217 0.18465078 0.05354946 0.020785315 -0.1881584 -0.011116564 0.014844354
0.008656635 -0.052241728 -0.0010942654 -0.055791505 -0.04743569 -0.08123858 -0.09678929 0.08890633
0.20317243 0.21762924 -0.057022445 0.006062108 -0.12403853 -0.08878319 -0.19691776 -0.05272696
0.08398477 0.17856319 0.07804457 0.05520574 0.24557413 -0.21274021 0.06694446 -0.06902946
0.022480771 0.18741536 -0.20245342 -0.042402107 0.04010036 0.09401607 0.09739719 -0.08704919
0.022852898 -0.14602238 0.18022318 0.0319028 0.1324556 -0.1508889 0.040243246 -0.0372194
-0.22386384 0.20950109 -0.13216765 0.12100196 -0.07319435 -0.090282775 0.0062164073 0.021506434
-0.03683498 -0.010091983 0.16815735 -0.2558179 -0.16673222 0.17683414 0.17988558 0.21351166
0.07317197 0.10606719 -0.1217354 0.14846376 0.03269883 -0.15626112 -0.00542847 0.070337154
-0.18475184 0.30607733 -0.10475856 0.12774195 0.07208199 -0.026095785 0.11356549 -0.1643723
0.0595407 -0.05958541 0.0061867335 0.03860918 0.22162446 -0.17710079 0.13054794 0.1928651
-0.076258376 -0.18785384 -0.08625505 0.13586216 -0.10290054 0.32099757 -0.21332201 -0.319799
0.087136984 0.06465951 0.046686977 -0.17894977 -0.25911793 -0.02630986 0.1217165 0.0057179877
0.1005708 0.116305165 -0.025107443 0.14674802 -0.06964706 0.19540913 0.024381895 -0.11592133
0.09398732 0.06957671 -0.067365974 -0.394862 0.049904298 -0.115223706 -0.14297828 0.11389691
-0.08771501 -0.118755184 -0.023657287 -0.11951525 -0.08071256 -0.059533574 -0.12501556 -0.040987924
0.27667564 0.1295573 0.035934087 -0.13395084 -0.12983786 0.04567237 0.13204052 -0.05045093
-0.06300255 -0.037648197 -0.01369538 0.07612616 -0.08067711 -0.020199267 -0.17867161 -0.024071839
-0.028299853 0.13669017 0.012904405 0.20174578 0.11435148 0.14856647 -0.24061838 -0.06434668
00000000: f9f3 bdbd c24a 833e c4bf 36bd 46da 4a3e
00000010: f412 dd3d 5615 3abd eb14 303e 35e4 053e
00000020: e8db 61be c562 d23d 00e2 ca3e 52d2 d03c
00000030: f66f af3d 032c b43c 3b36 b6bd fb62 00be
00000040: fd85 3b3e f6fa 02bd acc5 b33d 2444 42be
00000050: 4363 f23d ba84 273e d7a5 2d3d 297a adbe
00000060: d508 963d a147 94bd 24ad d9bd c445 ce3d
00000070: 44fd 423d fafc 00bc 1d54 4bbe a8f9 943d
00000080: a1eb 663d a81a 08be 2c3e 76be d2e8 c13d
00000090: 348b 82bd 55e2 93bd 926b ebbd b27d 6b3e
000000a0: f3d2 79be 6fe1 403e 495b a93e 1617 133e
000000b0: c94b 3bbd c976 6dbe 92d5 823c 5868 b9bb
000000c0: ffa5 5d3d a258 7dbe 795a 763e 4bc3 e0bd
000000d0: 46f7 7fbb a5ca f63c d098 69bd ee10 ab3c
000000e0: aef5 7a3c bc72 56be 489d 89be 79e4 f83c
000000f0: 9ed7 a83b 70a7 583d 73ec 1a3e 4170 c93d
00000100: d2ec 5dbe 5ad5 a13d e160 8a3d 6912 1b3c
00000110: 10ba 57bd 213f 85be f950 cf3d 77bc c7bd
00000120: 2e24 633c b391 8fbc 82f6 a3bd c74d c33c
00000130: af3d 8a3d 4fc1 443e b4fa 4bbd a338 0bbc
00000140: 6994 f4bd 22ab 3abe c1cd a73d a8ca 88bd
00000150: 3c72 57bd 806d 9b3d 0267 d8bd 7a6a d23d
00000160: fbfb af3c 13a9 1b3e a02c 433e 6aab 1bbe
00000170: 74a9 413e d067 193e 38b3 783e 84dd 8ebe
00000180: 9e9e f53d dde9 903c 4e79 3dbe 20b6 183e
00000190: b1ba 253d e616 103e f0d1 b8bd e4a9 35be
000001a0: 39e9 6f3d 35db f2bd 1815 3d3e ae56 5b3d
000001b0: f745 aa3c 98ac 40be 4022 36bc bc35 733c
000001c0: 8fd4 0d3c 6cfb 55bd 746d 8fba a285 64bd
000001d0: ed4b 42bd 6a60 a6bd 7739 c6bd 8614 b63d
000001e0: 6f0c 503e 33da 5e3e 5e90 69bd a6a4 c63b
000001f0: ea07 febd f6d3 b5bd cfa4 49be 3af8 57bd
00000200: 3500 ac3d 45d9 363e d5d5 9f3d 6a1f 623d
00000210: c977 7b3e 92d8 59be 2d1a 893d 515f 8dbd
00000220: 9829 b83c d0e9 3f3e f34f 4fbe d5ad 2dbd
00000230: 4640 243d 7f8b c03d 2e78 c73d d946 b2bd
00000240: 0036 bb3c e486 15be 6d8c 383e 83ac 023d
00000250: 71a2 073e 9f82 1abe 1ad6 243d 5f73 18bd
00000260: 903c 65be 7487 563e f556 07be e0cf f73d
00000270: ebe6 95bd 2de6 b8bd 01b3 cb3b 432e b03c
00000280: 47e0 16bd d858 25bc 7131 2c3e 90fa 82be
00000290: dabb 2abe 0214 353e ed33 383e cda2 5a3e
000002a0: 30db 953d c139 d93d 6950 f9bd e206 183e
000002b0: 35ef 053d ea02 20be 4fe1 b1bb ed0c 903d
000002c0: 962f 3dbe 2bb6 9c3e a88b d6bd c9ce 023e
000002d0: b99f 933d d4c6 d5bc 0695 e83d 3651 28be
000002e0: f3e0 733d d50f 74bd 15ba ca3b a924 1e3d
000002f0: 86f1 623e e959 35be 5cae 053e 6e7e 453e
00000300: 5a2d 9cbd c25c 40be 7da6 b0bd 731f 0b3e
00000310: 85bd d2bd cb59 a43e 1671 5abe b2bc a3be
00000320: e074 b23d 356c 843d d83a 3f3d 9c3e 37be
00000330: 1bab 84be c787 d7bc 8046 f93d f55d bb3b
00000340: 10f8 cd3d 6731 ee3d 20ae cdbc 1d45 163e
00000350: 1ea3 8ebd 5519 483e 8abc c73c 2a68 edbd
00000360: 6d7c c03d 3c7e 8e3d 2cf7 89bd 5a2b cabe
00000370: 7368 4c3d 68fa ebbd e668 12be c842 e93d
00000380: eda3 b3bd eb35 f3bd edcc c1bc 69c4 f4bd
00000390: a04c a5bd 7ad9 73bd 1404 00be f4e2 27bd
000003a0: 6ea8 8d3e abaa 043e 9f2f 133d 692a 09be
000003b0: 37f4 04be f312 3b3d a135 073e a2a5 4ebd
000003c0: 7b07 81bd ff34 1abd 9662 60bc 08e8 9b3d
000003d0: 0a3a a5bd ef78 a5bc b1f5 36be 4e32 c5bc
000003e0: 18d5 e7bc 82f8 0b3e ff6c 533c 7296 4e3e
000003f0: 1c31 ea3d cf21 183e aa64 76be 31c8 83bd

decoder.lin1.bias f4 [48]
0.0018004768 0.0017882084 -0.001235998 -0.0019172956 -0.0018637634 0.00017917139 -0.0019193998 -0.0019590552
0.0019545269 0.0013947822 -0.00066669314 -0.001783035 0.0 -0.0018374688 0.0019259279 -0.0017628286
0.0007531531 0.0013990323 -0.0018663349 0.0019420238 0.001706965 0.0017177011 0.0009590409 0.0019427568
-0.0010674722 -0.0018942538 -0.0019419665 0.0019960017 0.0019130922 -0.00089527044 -0.001985977 -0.0017993689
0.0013906339 -0.0019838347 -0.00190302 -0.0017482416 0.0019163991 0.0016856135 0.0018443817 0.0018119379
-0.001661525 -0.0014982873 -0.0019786223 -0.0012908877 -0.0017086671 0.0015825345 -0.0019686096 -0.0018227014
00000000: fafd eb3a 5162 ea3a 3601 a2ba c44d fbba
00000010: 8649 f4ba f4df 3b39 5f94 fbba 7e63 00bb
00000020: 8517 003b 20d1 b63a 05c5 2eba bab4 e9ba
00000030: 0000 0000 39d7 f0ba 6b6f fc3a b60e e7ba
00000040: 406f 453a bc5f b73a cf9f f4ba 818b fe3a
00000050: 3ebc df3a 7c24 e13a 2568 7b3a 1aa4 fe3a
00000060: 6cea 8bba 9c48 f8ba 9589 feba 5acf 023b
00000070: b9c0 fa3a 95b0 6aba 2a27 02bb cdd8 ebba
00000080: ee45 b63a 3903 02bb c16e f9ba 4125 e5ba
00000090: af2f fb3a ceef dc3a 2ebf f13a 8c7e ed3a
000000a0: 87c7 d9ba 2e62 c4ba c6ab 01bb 0133 a9ba
000000b0: 5bf5 dfba 0c6d cf3a ca03 01bb b6e7 eeba
