outputs/ultrra_challenge/phase3/ckpts_point_cloud/iteration_1/color_net.pth (torch, 222255 bytes, 18 tensors)

encoder.lin0.weight f4 [128, 159]
0	0x3dc0831e	0.094000086
1	0x3c9651d1	0.01834956
2	0xbd1c6746	-0.038184427
3	0x3cfc7623	0.03081805
4	0xbd02855f	-0.031865474
5	0xbcf69253	-0.03009907
6	0xbc3fada9	-0.011699119
7	0x3d6ad5e0	0.057332873
8	0x3cd85c2e	0.026411142
9	0xbdcb0550	-0.09913123
10	0x3d03484d	0.032051373
11	0x3e11a7da	0.14224187
12	0x3dc8196e	0.09770475
13	0x3c5b103f	0.013370573
14	0xbcded089	-0.027199047
15	0xbd28e034	-0.04122944
16	0xbe027512	-0.12739971
17	0x3c32e517	0.010918877
18	0x3d259835	0.04042836
19	0x3e392ffb	0.1808471
20	0xbd2dab56	-0.042399727
21	0x3de3146c	0.110878795
22	0x3cc45acd	0.023969078
23	0xbcc318db	-0.023815563
24	0x3ce2bbe8	0.027677491
25	0xbdca7cfe	-0.098871216
26	0xbc8bd261	-0.01706809
27	0xbcc03fe4	-0.023467965
28	0xbd3d8c41	-0.046276335
29	0xbdcb5bdc	-0.0992963
30	0x3cc813f2	0.024423573
31	0xba4bb591	-0.0007770891
32	0x3c28fadc	0.010313716
33	0xbcfd02ff	-0.030885218
34	0xbd309fc1	-0.043121103
35	0xbe38f758	-0.18063104
36	0xbdd63088	-0.10458475
37	0x3e49934c	0.19685096
38	0xbe4ddb62	-0.20103219
39	0xbe1feeab	-0.15618388
40	0xbd2ece79	-0.042677376
41	0xbcd3862b	-0.025820812
42	0xbd715af7	-0.05892464
43	0x3ccf5b99	0.025312232
44	0xbe0230a3	-0.12713866
45	0xbd8dbb6f	-0.06920516
46	0xbc9c55af	-0.019083826
47	0x3cb2bb3a	0.021817792
48	0x3de07888	0.109604895
49	0xbdd8adcb	-0.105800234
50	0xbe46ce4b	-0.19414632
51	0xbce6098a	-0.02808072
52	0x3ddb3b81	0.10704709
53	0x3de2282b	0.11042818
54	0x3c85de15	0.016341249
55	0xbda426bb	-0.080152
56	0xbda583c3	-0.08081772
57	0xbdc5ce29	-0.096584626
58	0xbcf31c68	-0.029676631
59	0x3d876527	0.0661109
60	0x3d825eca	0.06365736
61	0x3d46a82d	0.04850023
62	0x3d33d076	0.043899976
63	0x3e158f79	0.14605512
64	0xbdff7ede	-0.1247537
65	0x3d68728c	0.056749865
66	0x3ded1996	0.11577146
67	0x3d77a052	0.060455628
68	0xbe21bd7d	-0.1579494
69	0xbd36357d	-0.044484604
70	0xbd55c08e	-0.052185588
71	0x3e0d1f5f	0.13781498
72	0xbd066769	-0.032813463
73	0xbdd99005	-0.10623173
74	0xbcce366e	-0.025172438
75	0xbdc25553	-0.094889306
76	0x3ce0d219	0.027443932
77	0x3d849b2e	0.06474911
78	0x3d8a89bd	0.06764553
79	0x3d9427ce	0.07234155
80	0xbd803c7b	-0.06261536
81	0x3c335d03	0.010947469
82	0xbc0272bc	-0.007961925
83	0x3e094827	0.1340643
84	0x3dc107ac	0.094252914
85	0xbbbe2109	-0.005802278
86	0x3dc54952	0.09633125
87	0xbd036702	-0.032080658
88	0xbc6b6142	-0.01436645
89	0xbd7a063b	-0.061041098
90	0xb948aa7b	-0.00019136995
91	0xbc876810	-0.016529113
92	0xbd9ba9b8	-0.07600731
93	0xbd2f8a08	-0.042856246
94	0x3d301a29	0.0429937
95	0x3d44ceff	0.04804897
96	0xbd12f2e3	-0.035876166
97	0xbe5f141e	-0.21785018
98	0x3ac2a94e	0.0014851482
99	0xbd0e40b5	-0.03472968
100	0x3d1bcbcd	0.038036156
101	0xbd0feba2	-0.035136826
102	0x3dece48b	0.115670286
103	0xbcebd811	-0.028789552
104	0xbca25d86	-0.019819986
105	0xbd131e0b	-0.035917323
106	0xbc69961a	-0.014256978
107	0x3ccdc600	0.025118828
108	0x3c09a8ed	0.008402091
109	0xbd44d4eb	-0.048054617
110	0x3d6d29ff	0.05790138
111	0x3cfdf04a	0.030998368
112	0x3defe49f	0.11713528
113	0xbe2a6c86	-0.16642961
114	0x3bbb4b81	0.005715788
115	0x3e221dbf	0.1583166
116	0xbd24c533	-0.040227126
117	0xbca980f1	-0.020691367
118	0x3ccf251c	0.02528625
119	0xbdd1befa	-0.10241504
120	0x3ca7fbdc	0.020505838
121	0x3de051f3	0.109531306
122	0xbdc6e964	-0.097124845
123	0x3dbca277	0.09210675
124	0xbcaf4991	-0.021397384
125	0xbdd3c5d2	-0.103404656
126	0x3be2263d	0.006901531
127	0x3c380507	0.011231667
128	0xbda92de7	-0.08260708
129	0x3bfa3b84	0.0076364893
130	0x3d2af105	0.04173376
131	0xbdb25bce	-0.087089166
132	0x3d19c5ab	0.037542026
133	0xbc2d8a0c	-0.010591995
134	0xba8c80b2	-0.0010719507
135	0xbcf4e877	-0.029896004
136	0xbe106b8c	-0.14103526
137	0xbd1bc4d7	-0.038029518
138	0x3dbc1d15	0.091852345
139	0x3d40bfc1	0.04705787
140	0x3d35d50d	0.044392634
141	0xba384d02	-0.0007030518
142	0x3cb7f7c8	0.022457018
143	0x3deabc80	0.11461735
144	0x3d30cd79	0.043164704
145	0xbddd9140	-0.1081872
146	0x3d402bc1	0.046916727
147	0x3afac170	0.0019131135
148	0xbe2271fc	-0.15863794
149	0x3cc86cd9	0.024465965
150	0xbe5ceec8	-0.21575463
151	0xbe2647b0	-0.16238284
152	0x3c44f984	0.01202238
153	0x3c9dadc4	0.019247897
154	0x3d8b3bae	0.06798492
155	0x3db11988	0.08647448
156	0xbd84cbfb	-0.06484219
157	0xbcdd9262	-0.02704734
158	0x3e091805	0.13388069
159	0x3d2f6ff8	0.04283139
160	0xbe0ea695	-0.13930734
161	0x3de8c1ad	0.11365066
162	0x3c1b8495	0.009492059
163	0x3cd0b789	0.025478141
164	0xbcfa4d5c	-0.030554466
165	0xbdabc6b9	-0.08387513
166	0xbd311de1	-0.043241385
167	0x3da8c908	0.08241469
168	0x3d6555af	0.055989917
169	0xbd45ffef	-0.04833978
170	0xbd6811c5	-0.05665757
171	0x3d7bb9a6	0.061456345
172	0x3d8162a6	0.06317644
173	0xbdcaa105	-0.09893993
174	0xbd8cd650	-0.06876814
175	0x3e0910e4	0.1338535
176	0xbd6d2c8f	-0.057903823
177	0x3dd1f8b6	0.10252516
178	0x3d8d4f11	0.06899846
179	0x3c346ecf	0.011012747
180	0x3e39b6eb	0.18136184
181	0x3b3c646c	0.002874638
182	0x3d005ec6	0.031340383
183	0x3bef5a5b	0.0073044724
184	0xbcc48e1c	-0.023993544
185	0xbd382327	-0.0449554
186	0x3d2f303d	0.042770613
187	0xbe4e8be6	-0.20170555
188	0xbd82fc8e	-0.06395827
189	0xbe06623f	-0.13123415
190	0xbd680d79	-0.056653474
191	0xbe5deca9	-0.2167231
192	0xbdf13efe	-0.11779593
193	0x3de7abef	0.113120906
194	0xbe09ef2b	-0.13470142
195	0x3d861c1f	0.065483324
196	0x3d8a8cb1	0.06765116
197	0x3da79d1e	0.081842646
198	0xbcf6e46b	-0.030138215
199	0xbdbfbdfd	-0.09362409
200	0xbdb96e66	-0.0905426
201	0x3d340f7e	0.043960087
202	0x3d149298	0.036272615
203	0xbb3ac45b	-0.0028498385
204	0xbd29f972	-0.041497655
205	0x3e88e751	0.2673898
206	0xbda3ab07	-0.07991605
207	0xbd9ec6a7	-0.07752734
208	0x3e080230	0.13282084
209	0x3dddedbf	0.10836362
210	0xbd88e79b	-0.066848
211	0xbbe06aeb	-0.006848683
212	0x3e21543d	0.1575479
213	0xbcd11a75	-0.025525311
214	0xbc9a874b	-0.01886334
215	0xb8111789	-3.4592613e-05
216	0x3d029572	0.031880803
217	0x3d01a596	0.031652056
218	0xbd63ac7a	-0.05558441
219	0xbd0357d2	-0.032066174
220	0x3e022798	0.12710416
221	0x3dca3cb8	0.098748624
222	0xbdca31a5	-0.0987275
223	0xbdccefd9	-0.10006685
224	0xbcbc82dd	-0.02301162
225	0x3d8679b3	0.06566181
226	0x3d20f43f	0.03929543
227	0xbd5e5b06	-0.054286025
228	0xbcabae52	-0.020957146
229	0x3d82bfb9	0.063842244
230	0xbdaf7acf	-0.08568346
231	0x3aa0ffbb	0.0012283245
232	0xb909b01a	-0.00013130941
233	0xbcb57aeb	-0.022153338
234	0xbd65a0e7	-0.05606165
235	0xbd85ba49	-0.06529672
236	0x3d64189d	0.055687536
237	0x3b6057c3	0.0034231998
238	0x3d88301c	0.06649801
239	0xbb3cf97a	-0.0028835223
240	0xbd92beaa	-0.071652725
241	0xbc8671bc	-0.016411655
242	0xbbb21433	-0.005434537
243	0x3d698de4	0.057020083
244	0xbdc867b6	-0.09785406
245	0xbd0d08f1	-0.034432355
246	0x3dc0342f	0.09384953
247	0x3d1160e9	0.03549281
248	0xbda36a0c	-0.07979211
249	0x3d83a6f7	0.064283304
250	0x3d37f285	0.04490902
251	0x3de1aa35	0.110187925
252	0x3dbacd63	0.09121206
253	0xbdc46216	-0.09589021
254	0xbda8b006	-0.08236699
255	0xbd96621e	-0.07342933

encoder.lin0.bias f4 [128]
0	0x00000000	0.0
1	0x00000000	0.0
2	0x00000000	0.0
3	0x00000000	0.0
4	0x00000000	0.0
5	0x00000000	0.0
6	0x00000000	0.0
7	0x00000000	0.0
8	0x00000000	0.0
9	0x00000000	0.0
10	0x00000000	0.0
11	0x00000000	0.0
12	0x00000000	0.0
13	0x00000000	0.0
14	0x00000000	0.0
15	0x00000000	0.0
16	0x00000000	0.0
17	0x00000000	0.0
18	0x00000000	0.0
19	0x00000000	0.0
20	0x00000000	0.0
21	0x00000000	0.0
22	0x00000000	0.0
23	0x00000000	0.0
24	0x00000000	0.0
25	0x00000000	0.0
26	0x00000000	0.0
27	0x00000000	0.0
28	0x00000000	0.0
29	0x00000000	0.0
30	0x00000000	0.0
31	0x00000000	0.0
32	0x00000000	0.0
33	0x00000000	0.0
34	0x00000000	0.0
35	0x00000000	0.0
36	0x00000000	0.0
37	0x00000000	0.0
38	0x00000000	0.0
39	0x00000000	0.0
40	0x00000000	0.0
41	0x00000000	0.0
42	0x00000000	0.0
43	0x00000000	0.0
44	0x00000000	0.0
45	0x00000000	0.0
46	0x00000000	0.0
47	0x00000000	0.0
48	0x00000000	0.0
49	0x00000000	0.0
50	0x00000000	0.0
51	0x00000000	0.0
52	0x00000000	0.0
53	0x00000000	0.0
54	0x00000000	0.0
55	0x00000000	0.0
56	0x00000000	0.0
57	0x00000000	0.0
58	0x00000000	0.0
59	0x00000000	0.0
60	0x00000000	0.0
61	0x00000000	0.0
62	0x00000000	0.0
63	0x00000000	0.0
64	0x00000000	0.0
65	0x00000000	0.0
66	0x00000000	0.0
67	0x00000000	0.0
68	0x00000000	0.0
69	0x00000000	0.0
70	0x00000000	0.0
71	0x00000000	0.0
72	0x00000000	0.0
73	0x00000000	0.0
74	0x00000000	0.0
75	0x00000000	0.0
76	0x00000000	0.0
77	0x00000000	0.0
78	0x00000000	0.0
79	0x00000000	0.0
80	0x00000000	0.0
81	0x00000000	0.0
82	0x00000000	0.0
83	0x00000000	0.0
84	0x00000000	0.0
85	0x00000000	0.0
86	0x00000000	0.0
87	0x00000000	0.0
88	0x00000000	0.0
89	0x00000000	0.0
90	0x00000000	0.0
91	0x00000000	0.0
92	0x00000000	0.0
93	0x00000000	0.0
94	0x00000000	0.0
95	0x00000000	0.0
96	0x00000000	0.0
97	0x00000000	0.0
98	0x00000000	0.0
99	0x00000000	0.0
100	0x00000000	0.0
101	0x00000000	0.0
102	0x00000000	0.0
103	0x00000000	0.0
104	0x00000000	0.0
105	0x00000000	0.0
106	0x00000000	0.0
107	0x00000000	0.0
108	0x00000000	0.0
109	0x00000000	0.0
110	0x00000000	0.0
111	0x00000000	0.0
112	0x00000000	0.0
113	0x00000000	0.0
114	0x00000000	0.0
115	0x00000000	0.0
116	0x00000000	0.0
117	0x00000000	0.0
118	0x00000000	0.0
119	0x00000000	0.0
120	0x00000000	0.0
121	0x00000000	0.0
122	0x00000000	0.0
123	0x00000000	0.0
124	0x00000000	0.0
125	0x00000000	0.0
126	0x00000000	0.0
127	0x00000000	0.0

encoder.lin1.weight f4 [96, 128]
0	0xbdb40c64	-0.08791426
1	0xbd366872	-0.0445332
2	0x3b46f372	0.0030357507
3	0x3e150323	0.14551978
4	0x3ceab937	0.02865277
5	0x3e0b8105	0.13623436
6	0xbc2af8c3	-0.010435286
7	0x3cddd40a	0.027078647
8	0xbd091c11	-0.03347403
9	0xbd4ec8a2	-0.050484307
10	0xbd85563c	-0.065105885
11	0xbc3c1f1f	-0.011482029
12	0xbc8b295e	-0.016987499
13	0x3db1247b	0.08649536
14	0x3dd83cc7	0.10558467
15	0xbe62b746	-0.22140226
16	0x3c8344be	0.01602399
17	0xbdba7cd4	-0.0910584
18	0xbb3ff441	-0.0029289874
19	0x3e5dd29c	0.21662372
20	0xbdb08cb8	-0.0862059
21	0xbbfe4b91	-0.007760473
22	0x3d97564f	0.07389509
23	0xbdac5b7d	-0.084158875
24	0xbd80f305	-0.06296352
25	0xbd50c649	-0.05097035
26	0x3d502912	0.050820418
27	0x3da7b700	0.08189201
28	0x3d9f3fd1	0.07775844
29	0x3ce925b1	0.028460355
30	0x3e00c769	0.12576069
31	0x3de05456	0.10953586
32	0xbccb4ed4	-0.024817862
33	0x3d0196d6	0.03163799
34	0x3db757c4	0.08952287
35	0x3e0613f4	0.13093549
36	0xbd53db20	-0.051722646
37	0x3db7fd6b	0.089838825
38	0x3cdcf862	0.026973907
39	0x3daeb63d	0.08530853
40	0x3d77b9c3	0.06047989
41	0xbe35560a	-0.17708603
42	0xbc182ea4	-0.009288464
43	0xbd45abcd	-0.048259545
44	0xbc99a9ef	-0.018757788
45	0xba0490d2	-0.00050569803
46	0x3e17b0d0	0.14813542
47	0x3cff93fe	0.031198498
48	0xbce0379a	-0.027370263
49	0xbdd77d0c	-0.10521898
50	0xbdf14b1b	-0.11781903
51	0xbda32753	-0.07966485
52	0x3d85df8b	0.06536778
53	0xbcc7bdb7	-0.024382455
54	0xbc86cb98	-0.016454503
55	0x3d908b70	0.070578456
56	0xbe23f7b9	-0.16012467
57	0xbc904e95	-0.017615596
58	0xbe0ff19b	-0.14057009
59	0x3df0cad5	0.11757437
60	0x3dbe1d3f	0.09282922
61	0x3df321b0	0.1187166
62	0xbe103613	-0.14083128
63	0x3dcf0ce4	0.101098806
64	0xbd8300a9	-0.0639661
65	0x3be646d9	0.0070274887
66	0x3cb0b006	0.02156831
67	0x3df9ba72	0.12193765
68	0x3ba4525e	0.0050147017
69	0x3cdb98dc	0.026806287
70	0x3dbc5d55	0.09197489
71	0xbd40b65d	-0.047048915
72	0xbd13216d	-0.03592055
73	0xbcd21bba	-0.025647987
74	0xbcc58e87	-0.024115814
75	0xbd84987d	-0.06474397
76	0x3db54abb	0.08852144
77	0xbe15731f	-0.14594696
78	0x3d508883	0.050911438
79	0x3b92019e	0.004455759
80	0xbc868621	-0.01642138
81	0x3df27bb8	0.11840004
82	0xbd3687b4	-0.04456301
83	0xbd495b62	-0.049159415
84	0x3dd1c343	0.10242321
85	0x3e34e81b	0.17666666
86	0xbe249e15	-0.16075929
87	0xbdc86b23	-0.0978606
88	0xbb45410c	-0.0030098585
89	0xbd77aa4e	-0.06046515
90	0x3c4184f4	0.011811484
91	0xbd8dbbbf	-0.06920575
92	0xbcfefbeb	-0.031125983
93	0x3de9e8b4	0.11421338
94	0xbccad612	-0.02476028
95	0x3dec3f0c	0.11535463
96	0xbe337b9c	-0.17527622
97	0xbdb23129	-0.08700783
98	0xbde6fd40	-0.11278772
99	0xbdcf8298	-0.10132331
100	0x3d0545eb	0.032537382
101	0x3deb0a2d	0.1147655
102	0x3ca42ab7	0.0200399
103	0x3d42267b	0.04739998
104	0x3d33ac58	0.04386553
105	0xbd675d8b	-0.056485694
106	0xbde97ed5	-0.114011444
107	0xbcba80f0	-0.02276656
108	0xbd9a6f10	-0.07540715
109	0xbdbbe3a7	-0.091742806
110	0x3cf146e5	0.02945275
111	0x3d828850	0.06373656
112	0xbdc271c3	-0.094943546
113	0xbc09c69d	-0.0084091695
114	0xbe34449c	-0.17604297
115	0x3cfe8faf	0.031074373
116	0xbe23ad8a	-0.15984169
117	0xbdb6dd88	-0.089289725
118	0xbe638613	-0.22219114
119	0x3d1198dc	0.03554617
120	0x3c2336d9	0.009961807
121	0xbcef6f70	-0.029227942
122	0xbe096b41	-0.1341982
123	0x3d3852ef	0.045000967
124	0x3e007db3	0.1254795
125	0xbca60656	-0.020266693
126	0xbd80817a	-0.06274696
127	0x3d124219	0.035707567
128	0x3d642b0b	0.05570511
129	0x3d5634e1	0.052296523
130	0xbdb333bd	-0.08750103
131	0xbd0239fa	-0.031793572
132	0xbd32eb64	-0.043681517
133	0x3d506fb0	0.050887764
134	0xbd0fd559	-0.035115574
135	0xbc1d7b23	-0.009611878
136	0xbc9cce13	-0.019141233
137	0xbd5edbc0	-0.05440879
138	0x3dfd3fc1	0.12365676
139	0xbd769ff1	-0.060211126
140	0xbcb3e96a	-0.021961886
141	0xbda12d93	-0.07870021
142	0xbda4de22	-0.08050181
143	0xbd9be47d	-0.0761194
144	0x3de1bf08	0.110227644
145	0x3d6aa264	0.057283774
146	0xbdc21cdb	-0.0947816
147	0x3e365e29	0.17809357
148	0x3c14ee80	0.009090066
149	0x3ddd5f91	0.108092435
150	0x3da30861	0.079605825
151	0xbcf66f7a	-0.030082453
152	0x3d1f396f	0.038873132
153	0x3bf61c90	0.007510729
154	0x3cbd75cd	0.02312746
155	0xbe67dcb7	-0.2264279
156	0x3c7c77e3	0.015409443
157	0x3caa8202	0.020813946
158	0x3dd1d318	0.10245341
159	0x3d800f76	0.06252949
160	0x3d1245ca	0.035711087
161	0x3e04afa2	0.12957624
162	0x3db63cb5	0.08898298
163	0xbc1e4ca0	-0.0096618235
164	0x3dcf497c	0.10121438
165	0xbc27b051	-0.010234908
166	0x3d85222c	0.065006584
167	0xbcc04393	-0.023469722
168	0xbda4b4b3	-0.08042278
169	0x3e306954	0.1722768
170	0xbdd64a80	-0.104634285
171	0xbda79fe9	-0.08184797
172	0x3d3986d6	0.045294605
173	0x3c1cc244	0.009567801
174	0x3d8f0b27	0.06984549
175	0xbbc6de40	-0.0060689747
176	0xbd8bf1b0	-0.068332076
177	0x3cd0cd35	0.025488475
178	0x3d901296	0.07034795
179	0xbd46f7e6	-0.048576258
180	0x3dd1be44	0.102413684
181	0x3e1f10ba	0.15533724
182	0xbe7722e3	-0.24134402
183	0xbd8aa098	-0.06768912
184	0xbc8298b2	-0.015941951
185	0xbc900da7	-0.017584635
186	0xbc96c640	-0.01840508
187	0x3df9d4db	0.12198802
188	0x3d94b9a7	0.07261973
189	0xbe00761e	-0.12545058
190	0xbc0f78b9	-0.00875681
191	0x3d8965da	0.0670888
192	0x3c8704ea	0.016481835
193	0x3d46b8eb	0.048516195
194	0x3cd5db40	0.026105523
195	0xbd97766b	-0.07395633
196	0x3cca3843	0.02468503
197	0x3d40f44e	0.047107987
198	0x3d8dfbb8	0.06932777
199	0xbdd16310	-0.10223973
200	0x3d7140e5	0.05889978
201	0xbe2f0701	-0.17092516
202	0x3d5a81c0	0.053346395
203	0xbdcb405b	-0.09924384
204	0x3db6d4e1	0.08927322
205	0x3e0dc874	0.13845998
206	0xbdaa32a1	-0.08310438
207	0xbe025719	-0.12728538
208	0xbca51de6	-0.020155858
209	0xbd9137ff	-0.070907585
210	0x3e1cc5e0	0.15309858
211	0x3d9950c2	0.074861065
212	0xbe20754a	-0.15669742
213	0xbcdfc609	-0.02731611
214	0x3d803468	0.06259996
215	0xbd3d4ac3	-0.046213876
216	0xbceba25f	-0.028763948
217	0x3d3db09c	0.046311006
218	0x3d558fd7	0.05213913
219	0xbdeef69a	-0.11668129
220	0xbcbc883d	-0.023014182
221	0x3e0a3aba	0.13498965
222	0xbc8ec35e	-0.017427143
223	0x3d8f063f	0.06983613
224	0xbe238df7	-0.15972124
225	0xbd194459	-0.037418697
226	0xbe186814	-0.14883453
227	0xbdd87ea9	-0.105710335
228	0xb9a82cf4	-0.0003207695
229	0x3bd3f72c	0.006468674
230	0xbd944410	-0.072395444
231	0xbd1703c6	-0.036868833
232	0x3d1b8377	0.03796717
233	0xbd8fb483	-0.07016852
234	0xbdb381b8	-0.08764976
235	0x3db37120	0.08761811
236	0xbd10383a	-0.03520987
237	0xbdcea450	-0.10089934
238	0x3d9cf76d	0.0766438
239	0xbc1a35c5	-0.009412234
240	0x3c3ba825	0.011453663
241	0xbd99cb0a	-0.0750943
242	0xbda60857	-0.081070594
243	0x3bea43d3	0.0071491986
244	0x3d0d26e3	0.034460913
245	0xbd8a1cdb	-0.06743785
246	0x3d6d9d5c	0.058011398
247	0x3d2c3e79	0.042051766
248	0x3b83da52	0.0040238285
249	0x3dc7db70	0.09758651
250	0x3e2b3cdb	0.16722433
251	0xbd157d38	-0.03649637
252	0xbd9b4a25	-0.07582501
253	0x3cc9e972	0.024647448
254	0x3d60451e	0.054753415
255	0x3e218df2	0.15776804

encoder.lin1.bias f4 [96]
0	0x00000000	0.0
1	0x00000000	0.0
2	0x00000000	0.0
3	0x00000000	0.0
4	0x00000000	0.0
5	0x00000000	0.0
6	0x00000000	0.0
7	0x00000000	0.0
8	0x00000000	0.0
9	0x00000000	0.0
10	0x00000000	0.0
11	0x00000000	0.0
12	0x00000000	0.0
13	0x00000000	0.0
14	0x00000000	0.0
15	0x00000000	0.0
16	0x00000000	0.0
17	0x00000000	0.0
18	0x00000000	0.0
19	0x00000000	0.0
20	0x00000000	0.0
21	0x00000000	0.0
22	0x00000000	0.0
23	0x00000000	0.0
24	0x00000000	0.0
25	0x00000000	0.0
26	0x00000000	0.0
27	0x00000000	0.0
28	0x00000000	0.0
29	0x00000000	0.0
30	0x00000000	0.0
31	0x00000000	0.0
32	0x00000000	0.0
33	0x00000000	0.0
34	0x00000000	0.0
35	0x00000000	0.0
36	0x00000000	0.0
37	0x00000000	0.0
38	0x00000000	0.0
39	0x00000000	0.0
40	0x00000000	0.0
41	0x00000000	0.0
42	0x00000000	0.0
43	0x00000000	0.0
44	0x00000000	0.0
45	0x00000000	0.0
46	0x00000000	0.0
47	0x00000000	0.0
48	0x00000000	0.0
49	0x00000000	0.0
50	0x00000000	0.0
51	0x00000000	0.0
52	0x00000000	0.0
53	0x00000000	0.0
54	0x00000000	0.0
55	0x00000000	0.0
56	0x00000000	0.0
57	0x00000000	0.0
58	0x00000000	0.0
59	0x00000000	0.0
60	0x00000000	0.0
61	0x00000000	0.0
62	0x00000000	0.0
63	0x00000000	0.0
64	0x00000000	0.0
65	0x00000000	0.0
66	0x00000000	0.0
67	0x00000000	0.0
68	0x00000000	0.0
69	0x00000000	0.0
70	0x00000000	0.0
71	0x00000000	0.0
72	0x00000000	0.0
73	0x00000000	0.0
74	0x00000000	0.0
75	0x00000000	0.0
76	0x00000000	0.0
77	0x00000000	0.0
78	0x00000000	0.0
79	0x00000000	0.0
80	0x00000000	0.0
81	0x00000000	0.0
82	0x00000000	0.0
83	0x00000000	0.0
84	0x00000000	0.0
85	0x00000000	0.0
86	0x00000000	0.0
87	0x00000000	0.0
88	0x00000000	0.0
89	0x00000000	0.0
90	0x00000000	0.0
91	0x00000000	0.0
92	0x00000000	0.0
93	0x00000000	0.0
94	0x00000000	0.0
95	0x00000000	0.0

encoder.lin2.weight f4 [64, 96]
0	0xb90d55c3	-0.00013478757
1	0xbd78012c	-0.060547993
2	0x3e060cad	0.13090773
3	0x3c422999	0.011850738
4	0xbdbff006	-0.09371953
5	0xbd1ea462	-0.038730986
6	0x3e3a5453	0.1819623
7	0x3d3771d3	0.044786286
8	0xbe3eaf31	-0.18621518
9	0x3db245e4	0.08704737
10	0xbdb4309e	-0.087983355
11	0xbd11c288	-0.03558591
12	0x3dab7f99	0.08373947
13	0xbd02e4cd	-0.031956483
14	0xbdd42849	-0.10359246
15	0x3cc5fb76	0.024167757
16	0xbe2f7786	-0.17135438
17	0xbb8d4a92	-0.004311868
18	0xbe30dbfc	-0.17271417
19	0x3b8e410f	0.0043412517
20	0x3e03dd4b	0.12877385
21	0x3d529ad7	0.051417198
22	0xbdc5e53e	-0.09662865
23	0x3cc17f6b	0.023620328
24	0x3ddf5ba3	0.1090615
25	0x3d872291	0.0659839
26	0xbe08a61e	-0.13344619
27	0x3ce0143d	0.0273534
28	0xbc835db1	-0.016035886
29	0xbdf1e0ee	-0.1181048
30	0x3e6763d3	0.22596674
31	0x3e0d9c37	0.13829122
32	0x3cf2fd6d	0.029661858
33	0x3dfcac87	0.123375945
34	0xbe253111	-0.16131999
35	0x3e1c8230	0.15284038
36	0xbd2b69a3	-0.04184879
37	0x3e88d177	0.2672231
38	0x3cbdafd9	0.02315514
39	0x3ca842c1	0.020539643
40	0xbe32ebc1	-0.17472745
41	0xbd148542	-0.036259897
42	0x3e204bfe	0.15653989
43	0x3d8fe05d	0.07025216
44	0xbdd7756b	-0.105204426
45	0x3e234751	0.15945174
46	0xbd42e7fe	-0.047584526
47	0xbde4e2f5	-0.11176101
48	0x3dbf4771	0.09339798
49	0x3e3e242f	0.1856849
50	0x3e045650	0.1292355
51	0x3e9ef0b1	0.31043008
52	0xbd05a8d2	-0.032631703
53	0x3da6fff6	0.081542894
54	0xbe0544d9	-0.13014545
55	0x3e70607c	0.23474306
56	0xbd47992b	-0.048730057
57	0x3d82eafc	0.06392476
58	0x3e33bcd7	0.17552505
59	0xbaab5ee6	-0.0013074547
60	0xbda378ef	-0.079820506
61	0xbc502692	-0.012704508
62	0xbd6714b0	-0.056416214
63	0xbdc3cc50	-0.09560454
64	0x3d045403	0.032306682
65	0xbc7c353a	-0.01539355
66	0xbba8f83c	-0.005156545
67	0x3e621694	0.22078925
68	0x3b0b5ecb	0.0021266218
69	0xbdb5b294	-0.08871952
70	0xbd1c6419	-0.038181398
71	0xbd3f0e56	-0.04664453
72	0x3c749de7	0.014930225
73	0xbd52ebb8	-0.05149433
74	0xbdd83c79	-0.10558409
75	0x3da1ea12	0.079059735
76	0x3d1a2275	0.037630517
77	0x3e095d37	0.13414465
78	0x3d847da2	0.06469275
79	0xbe7d2644	-0.24721628
80	0xbd6e78e2	-0.05822075
81	0x3c953638	0.01821433
82	0x3d6ca471	0.05777401
83	0xbcdaf1e7	-0.026726676
84	0x3d2611db	0.040544372
85	0xbd015f5b	-0.03158508
86	0xbdf84bd8	-0.12123841
87	0x3d14e516	0.036351286
88	0x3de07ad8	0.109609306
89	0x3e1f1baa	0.15537897
90	0xbb31f229	-0.0027152395
91	0xbd9765b4	-0.07392445
92	0xbca3b29e	-0.019982632
93	0x3e34328a	0.17597404
94	0x3e4556fe	0.19271466
95	0xbd1324d8	-0.03592381
96	0xbe131b04	-0.14365774
97	0xbcdb7ed6	-0.026793879
98	0xbcc999fc	-0.024609558
99	0xbe876e70	-0.26451445
100	0x3e1b9e96	0.15197214
101	0x3e12e189	0.14343847
102	0xbe0e058b	-0.13869302
103	0xbd33ba1d	-0.043878663
104	0x3d97b574	0.07407656
105	0xbd697859	-0.056999538
106	0x3d9fcebf	0.078031056
107	0x3e7eb93f	0.24875353
108	0xbd1f4cba	-0.03889153
109	0x3d5173fe	0.05113601
110	0x3b867bba	0.004104105
111	0xbd17d560	-0.037068725
112	0xbdb07e5b	-0.086178504
113	0xbd452752	-0.048133202
114	0xbe38f053	-0.18060426
115	0xbd64578d	-0.055747557
116	0x3de9a581	0.114085205
117	0x3e533cd8	0.20628679
118	0x3c19034c	0.009339165
119	0xbe8b6607	-0.27226278
120	0xbe056971	-0.13028504
121	0xbd0f6fdf	-0.035018798
122	0x3e27da3b	0.16391842
123	0x3c6cda64	0.014456365
124	0xbe171731	-0.1475494
125	0x3d80080a	0.06251533
126	0xbd774497	-0.060368147
127	0x3c00f9f6	0.007872095
128	0x3df8ad53	0.12142434
129	0x3cd8561e	0.026408251
130	0x3c0004ea	0.007813672
131	0xbddd00ed	-0.10791192
132	0xbd1dc5dc	-0.03851877
133	0x3dc45ca9	0.09587986
134	0xbda04a5d	-0.07826684
135	0xbd9b869b	-0.07594033
136	0xbd7749e1	-0.06037319
137	0x3c03b624	0.008039031
138	0xbde75a3e	-0.11296509
139	0xbe76f6c3	-0.2411757
140	0xbe561514	-0.20906478
141	0xbe853bff	-0.26022336
142	0xbe1594a0	-0.14607477
143	0xbdb3f50e	-0.08786975
144	0xbd8f27cf	-0.06990015
145	0xb9ea92e6	-0.00044741406
146	0xbd8e6503	-0.0695286
147	0xbe6ab6f4	-0.22921354
148	0x3ddcde1a	0.1078455
149	0x3ab8e3cb	0.0014105974
150	0xbce873fd	-0.02837562
151	0x3cc64214	0.02420143
152	0x3de474d0	0.11155093
153	0xbcaf8abe	-0.021428462
154	0x3e24fb91	0.1611159
155	0xbc80c7af	-0.015720217
156	0xbe2bf3bf	-0.167922
157	0xbd942fa3	-0.072356485
158	0x3da60435	0.08106271
159	0x3cdcf273	0.026971078
160	0x3de78df5	0.11306373
161	0x3db72030	0.08941686
162	0xbd12e26b	-0.03586046
163	0xbd9cc28b	-0.076542936
164	0xbd6f5208	-0.05842784
165	0x3e5cbf07	0.21557246
166	0x3dcd137c	0.10013482
167	0x3dfee941	0.124468334
168	0xbe05a85a	-0.13052502
169	0x3c07d3bb	0.008290227
170	0x3d157892	0.036491938
171	0xbd0dd036	-0.034622394
172	0x3c8173b5	0.015802244
173	0x3dddde4c	0.108334154
174	0xbe068dee	-0.1314008
175	0xbe080a41	-0.13285162
176	0xbdb23052	-0.087006226
177	0x3df8c11d	0.121462084
178	0x3da94f21	0.08267046
179	0xbdea9f3b	-0.11456152
180	0x3c81913f	0.015816329
181	0xbe0f2bee	-0.13981602
182	0x3e46cc87	0.19413958
183	0xbd9c0dd1	-0.07619823
184	0x3d9a392d	0.07530437
185	0xbd8d166c	-0.06889042
186	0x3ccc6303	0.024949556
187	0xbd381596	-0.04494246
188	0xbd9df225	-0.07712201
189	0xbcfad82b	-0.030620655
190	0xbe1bab47	-0.15202056
191	0xbdd32bfa	-0.10311122
192	0x3d781ad5	0.060572464
193	0x3d81df55	0.06341425
194	0xbe01356b	-0.12618034
195	0xbcedc440	-0.029024243
196	0x3e36b50a	0.17842498
197	0x3e14bbfb	0.14524834
198	0x3d80b6a9	0.0628484
199	0x3e547315	0.20747025
200	0x3e38bbdc	0.18040413
201	0x3d30b9c9	0.04314593
202	0xbd6d121b	-0.057878595
203	0x3e58cc10	0.21171594
204	0x3c9bead7	0.019032879
205	0x3df518ed	0.11967645
206	0xbdab76ae	-0.08372246
207	0x3ca5b02d	0.020225609
208	0x3e3d3fcf	0.18481372
209	0x3d575de8	0.05257979
210	0xbd74931e	-0.059710614
211	0x3e366b0b	0.17814271
212	0x3c25ebea	0.010127047
213	0x3e27af23	0.16375403
214	0xbbd04674	-0.006356055
215	0xbe000c32	-0.12504652
216	0x3d4423d6	0.04788574
217	0x3d854325	0.065069474
218	0xbe4bff73	-0.19921665
219	0xbe76889f	-0.24075554
220	0x3d9ee053	0.0775763
221	0xbcb7d9e1	-0.02244276
222	0x3e52575b	0.20541136
223	0xbe1f037c	-0.15528673
224	0x3c9e9f27	0.019363
225	0x3d1e301e	0.038620107
226	0x3e47f088	0.19525349
227	0xbd98547e	-0.074379906
228	0xbd4bb104	-0.049729362
229	0x3b29c7f0	0.0025906526
230	0x3d83e53e	0.06440209
231	0xbbf6d198	-0.0075323097
232	0x3e07f785	0.13278015
233	0xbe71c59d	-0.2361054
234	0x3d7f318e	0.06230312
235	0xbd08dd5e	-0.033414237
236	0x3c75cd47	0.015002555
237	0x3df905ea	0.12159331
238	0x3cf2c9af	0.029637186
239	0x3d1b1731	0.037863914
240	0xbc36fdb8	-0.01116889
241	0x3dba4d0c	0.09096727
242	0x3d4ba1f9	0.049715016
243	0xbcd7d7cc	-0.026348017
244	0x3d7fcda2	0.062451966
245	0xbd1640f6	-0.036683045
246	0xbd262c21	-0.04056943
247	0x3e03ac5d	0.1285872
248	0xbddbd252	-0.10733475
249	0x3e1475af	0.14498018
250	0x3e4171ba	0.1889104
251	0xbddf86be	-0.10914372
252	0x3d3f865f	0.046759006
253	0x3cadda12	0.021222148
254	0x3ce71da9	0.028212385
255	0x3cd4d904	0.025982387

encoder.lin2.bias f4 [64]
0	0x00000000	0.0
1	0x00000000	0.0
2	0x00000000	0.0
3	0x00000000	0.0
4	0x00000000	0.0
5	0x00000000	0.0
6	0x00000000	0.0
7	0x00000000	0.0
8	0x00000000	0.0
9	0x00000000	0.0
10	0x00000000	0.0
11	0x00000000	0.0
12	0x00000000	0.0
13	0x00000000	0.0
14	0x00000000	0.0
15	0x00000000	0.0
16	0x00000000	0.0
17	0x00000000	0.0
18	0x00000000	0.0
19	0x00000000	0.0
20	0x00000000	0.0
21	0x00000000	0.0
22	0x00000000	0.0
23	0x00000000	0.0
24	0x00000000	0.0
25	0x00000000	0.0
26	0x00000000	0.0
27	0x00000000	0.0
28	0x00000000	0.0
29	0x00000000	0.0
30	0x00000000	0.0
31	0x00000000	0.0
32	0x00000000	0.0
33	0x00000000	0.0
34	0x00000000	0.0
35	0x00000000	0.0
36	0x00000000	0.0
37	0x00000000	0.0
38	0x00000000	0.0
39	0x00000000	0.0
40	0x00000000	0.0
41	0x00000000	0.0
42	0x00000000	0.0
43	0x00000000	0.0
44	0x00000000	0.0
45	0x00000000	0.0
46	0x00000000	0.0
47	0x00000000	0.0
48	0x00000000	0.0
49	0x00000000	0.0
50	0x00000000	0.0
51	0x00000000	0.0
52	0x00000000	0.0
53	0x00000000	0.0
54	0x00000000	0.0
55	0x00000000	0.0
56	0x00000000	0.0
57	0x00000000	0.0
58	0x00000000	0.0
59	0x00000000	0.0
60	0x00000000	0.0
61	0x00000000	0.0
62	0x00000000	0.0
63	0x00000000	0.0

encoder.lin3.weight f4 [48, 64]
0	0xbe1dae4f	-0.15398525
1	0xbc729631	-0.014806316
2	0x3e051f99	0.13000335
3	0xbd0524f6	-0.03250595
4	0x3d88348c	0.066506475
5	0xbe857cf9	-0.2607191
6	0x3e4a33b7	0.1974629
7	0x3d544038	0.051819056
8	0x3ce73d44	0.028227456
9	0xbde2ef5a	-0.11080809
10	0x3aa12ed9	0.0012297287
11	0x3dae9882	0.08525182
12	0x3d816757	0.06318539
13	0x3e2d59fb	0.16928856
14	0xbe1979cf	-0.14987873
15	0x3d3000af	0.042969402
16	0xbd8e0168	-0.06933862
17	0xbde48604	-0.11158374
18	0x3e2bfaa0	0.16794825
19	0x3e0a347e	0.13496587
20	0x3cbb6047	0.022873057
21	0xbd3e25d8	-0.04642281
22	0xbe36fa18	-0.1786884
23	0xbd313315	-0.043261606
24	0x3e484d5d	0.19560762
25	0xbdf69151	-0.12039436
26	0xbe36df63	-0.17858653
27	0x3d27561a	0.040853597
28	0xbe060bb6	-0.13090405
29	0xbe003706	-0.1252099
30	0x3d9ac2a0	0.07556653
31	0x3c728d8f	0.014804258
32	0x3d6cb73a	0.057791926
33	0x3ded123c	0.115757436
34	0xbd28a35f	-0.041171428
35	0xbdc42be5	-0.09578685
36	0xbd332859	-0.04373965
37	0xbe7da172	-0.24768618
38	0xbd6daa1e	-0.058023565
39	0xbe1eb1ca	-0.15497509
40	0xbd5e9e1c	-0.054350004
41	0x3dc580d4	0.09643713
42	0xbde98d5f	-0.114039175
43	0x3cc60ec3	0.02417696
44	0x3d7c0056	0.061523758
45	0x3d643d42	0.055722483
46	0x3e250a0c	0.16117114
47	0xbddfa147	-0.10919433
48	0xbb523803	-0.0032076843
49	0xbde97a85	-0.11400322
50	0xbdb3de7b	-0.08782669
51	0x3dfa90a5	0.1223462
52	0xbdd2ee43	-0.10299351
53	0x3d4c2208	0.049837142
54	0x3e109037	0.14117514
55	0xbcec84cc	-0.028871916
56	0xbe7a385c	-0.24435562
57	0xbd6ac90c	-0.05732064
58	0xbdcbca84	-0.09950736
59	0x3d6918b2	0.056908317
60	0xbd9a88e9	-0.07545645
61	0xbe49c752	-0.19704941
62	0x3e41fe90	0.18944764
63	0x3c64ef8d	0.013973129
64	0xbd199644	-0.03749682
65	0x3c8b3ed4	0.016997732
66	0x3c7f0a7a	0.015566463
67	0xbdb6ec34	-0.08931771
68	0x3d2f7a34	0.04284115
69	0xbe4aa1c3	-0.1978827
70	0xbdd56718	-0.10420054
71	0xbcf72425	-0.030168602
72	0x3d824e90	0.06362641
73	0xbe382875	-0.17984183
74	0xbd6eec58	-0.058330864
75	0x3d332a2b	0.043741386
76	0xbc87a71a	-0.016559172
77	0xbe1ca355	-0.15296681
78	0xbe3425db	-0.17592566
79	0xbe79986e	-0.24374554
80	0xbe09d5ea	-0.13460508
81	0xbe2fdcca	-0.17174068
82	0x3d171c39	0.03689215
83	0x3e24edf7	0.16106401
84	0xbdab9f22	-0.083799616
85	0xbde83513	-0.11338248
86	0x3cbcbd26	0.023039412
87	0xbd961eb3	-0.07330074
88	0xbd4b01e2	-0.049562342
89	0x3e8eb867	0.27875063
90	0x3d032f90	0.03202778
91	0x3e4d98cb	0.20077817
92	0x3dbb7e21	0.091549166
93	0x3e1bce59	0.15215434
94	0xbd6ad513	-0.05733211
95	0x3dce5f1e	0.10076736
96	0xbc8cfac8	-0.017209426
97	0xbd010bae	-0.03150528
98	0x3d5aaee1	0.053389434
99	0xbe029a50	-0.12754178
100	0xbe02a53e	-0.12758347
101	0x3e1a6d21	0.15080692
102	0x3dbf96b1	0.09354914
103	0xbe7ac9a2	-0.2449098
104	0x3b0f1d11	0.0021837393
105	0xbd44f3bc	-0.048084006
106	0xbe277ede	-0.1635699
107	0x3d5ff0e3	0.054673087
108	0xbe837c2f	-0.25680682
109	0xbd1b8e8f	-0.03797775
110	0xbdfafc8f	-0.12255203
111	0xbd66a193	-0.056306433
112	0xbdc2706a	-0.094940975
113	0xbe993ef1	-0.29930833
114	0xbe97eada	-0.29671365
115	0xbe09db12	-0.13462475
116	0xbbb90c7e	-0.005647241
117	0xbcd7f52d	-0.026362026
118	0x3cc1f5ad	0.023676718
119	0x3dc00dec	0.093776554
120	0x3ccc7bb2	0.024961326
121	0x3ddddce2	0.10833146
122	0xbde154a0	-0.11002469
123	0xbde5f1f6	-0.11227791
124	0x3db6580d	0.08903513
125	0x3e94a42b	0.290315
126	0xbe172e2a	-0.14763704
127	0xbe75c298	-0.24000013
128	0x3db31116	0.08743493
129	0xbd4e00b5	-0.050293643
130	0xbdaa3792	-0.083113804
131	0x3e562649	0.20913042
132	0x3caaedf1	0.020865412
133	0x3e1713df	0.14753674
134	0x3e31de45	0.17369945
135	0xbe746721	-0.23867466
136	0x3dfd700b	0.12374886
137	0x3d1e8783	0.038703453
138	0x3d99a73d	0.07502601
139	0xbe6489a7	-0.22318135
140	0xbdc5a053	-0.0964972
141	0xbe0c355d	-0.13692231
142	0xbcbd4340	-0.023103356
143	0xbe74cae8	-0.23905528
144	0xbd30a777	-0.043128457
145	0x3b7357e0	0.0037131235
146	0xbd629f93	-0.055327963
147	0x3c8ea5b3	0.017412996
148	0xbe1068d7	-0.14102493
149	0xbcb05aad	-0.021527613
150	0xbc3577af	-0.011075898
151	0x3aab60da	0.0013075129
152	0xbd9d8c02	-0.0769272
153	0xbd315a98	-0.043299288
154	0xbdbdb966	-0.092638776
155	0x3da84ec3	0.082181476
156	0x3d90b591	0.07065881
157	0x3e09496d	0.13406916
158	0x3d51917b	0.05116413
159	0xbe486dee	-0.19573185
160	0xb9c48410	-0.00037482427
161	0xbdfaab2f	-0.12239682
162	0x3e8321f7	0.2561185
163	0xbe4898a0	-0.19589472
164	0x3d40ed4c	0.047101304
165	0xbddd86e2	-0.108167425
166	0xbcb764a6	-0.02238686
167	0xbd92ff08	-0.071775496
168	0x3e5b749e	0.21431205
169	0x3e138a68	0.14408267
170	0xbe28b004	-0.16473395
171	0xbdd70af7	-0.10500138
172	0xbd774ae4	-0.060374156
173	0x3d6a97b9	0.0572736
174	0x3d2c0635	0.041998107
175	0xbd995193	-0.07486262
176	0x3dd2a594	0.10285488
177	0x3dba431b	0.090948306
178	0xbd953f85	-0.07287506
179	0x3caf7c63	0.021421617
180	0x3cce2bff	0.025167463
181	0xbe38204b	-0.17981069
182	0xbc669f7e	-0.014076112
183	0xbe3ce11f	-0.18445252
184	0xbd059a7c	-0.03261803
185	0xbe07e506	-0.1327096
186	0x3d2b3570	0.04179901
187	0xbd8ccbb8	-0.06874794
188	0x3e6c32f6	0.23066315
189	0xbe007126	-0.12543163
190	0xbcb8f363	-0.022576993
191	0x3e0487d5	0.12942441
192	0xbca89813	-0.020580327
193	0x3e47a874	0.19497854
194	0xbd73fc0d	-0.059566546
195	0x3d0779ef	0.03307527
196	0xbc593d75	-0.013259281
197	0xbe1cd49b	-0.15315478
198	0xbd976a78	-0.07393354
199	0xbe174659	-0.14772929
200	0xbe03261f	-0.12807511
201	0x3d37826e	0.04480212
202	0x3c0228c4	0.00794429
203	0x3df53077	0.119721346
204	0xbe289ded	-0.16466494
205	0xbe0104d3	-0.12599497
206	0xbe035a2e	-0.1282737
207	0xbd2ced6e	-0.042218618
208	0x3e8cc6e2	0.27495486
209	0x3db9c0f5	0.09070007
210	0x3d8903cd	0.06690178
211	0xbc8cb129	-0.01717432
212	0xbe5b6804	-0.21426398
213	0xbda49110	-0.08035481
214	0x3e83dd3b	0.25754723
215	0x3d47baf7	0.048762288
216	0xbdcbf938	-0.09959644
217	0x3c39e141	0.011345209
218	0xbeac7722	-0.3368464
219	0x3e0eac23	0.13932852
220	0x3cd64c4e	0.026159432
221	0xbdedc3ac	-0.11609587
222	0x3eab727f	0.3348579
223	0xbe01a6a4	-0.12661225
224	0x3b10e19a	0.0022107125
225	0xbe0b95d7	-0.13631378
226	0xbcddf241	-0.027093055
227	0xbd451524	-0.048115864
228	0x3d1e91ca	0.038713254
229	0x3dd9e0fb	0.10638615
230	0xbe43411b	-0.19067805
231	0xbdff7253	-0.124729775
232	0x3d82814c	0.06372318
233	0xbd6ed749	-0.05831078
234	0x3dd205dd	0.102550246
235	0x3c18cd27	0.009326256
236	0x3e1f8480	0.15577888
237	0x3e03ae85	0.12859543
238	0x3e64e04e	0.2235119
239	0xbd9ff9e2	-0.07811333
240	0xbdde26b6	-0.10847227
241	0xbe066be4	-0.13127095
242	0x3cd221d4	0.025650896
243	0xbdaf180d	-0.08549509
244	0xbd75b952	-0.05999119
245	0x3ce81dfd	0.028334612
246	0x3d291ead	0.04128902
247	0x3e242111	0.16028239
248	0x3e66f730	0.22555232
249	0xbd8dc726	-0.0692275
250	0x3d8136eb	0.06309303
251	0xbaa8358c	-0.0012833341
252	0x3e417810	0.18893456
253	0xbc5671cd	-0.013088656
254	0xbd2592a0	-0.040423036
255	0x3df66882	0.12031652

encoder.lin3.bias f4 [48]
0	0x00000000	0.0
1	0x00000000	0.0
2	0x00000000	0.0
3	0x00000000	0.0
4	0x00000000	0.0
5	0x00000000	0.0
6	0x00000000	0.0
7	0x00000000	0.0
8	0x00000000	0.0
9	0x00000000	0.0
10	0x00000000	0.0
11	0x00000000	0.0
12	0x00000000	0.0
13	0x00000000	0.0
14	0x00000000	0.0
15	0x00000000	0.0
16	0x00000000	0.0
17	0x00000000	0.0
18	0x00000000	0.0
19	0x00000000	0.0
20	0x00000000	0.0
21	0x00000000	0.0
22	0x00000000	0.0
23	0x00000000	0.0
24	0x00000000	0.0
25	0x00000000	0.0
26	0x00000000	0.0
27	0x00000000	0.0
28	0x00000000	0.0
29	0x00000000	0.0
30	0x00000000	0.0
31	0x00000000	0.0
32	0x00000000	0.0
33	0x00000000	0.0
34	0x00000000	0.0
35	0x00000000	0.0
36	0x00000000	0.0
37	0x00000000	0.0
38	0x00000000	0.0
39	0x00000000	0.0
40	0x00000000	0.0
41	0x00000000	0.0
42	0x00000000	0.0
43	0x00000000	0.0
44	0x00000000	0.0
45	0x00000000	0.0
46	0x00000000	0.0
47	0x00000000	0.0

decoder.lin0.weight f4 [48, 96]
0	0x39ef6cb6	0.00045666628
1	0xbe276eb4	-0.16350824
2	0x3d70af05	0.05876066
3	0x3e0aa3f0	0.135391
4	0x3d906a27	0.07051497
5	0x3db2de78	0.08733839
6	0xbe9a3b71	-0.30123475
7	0x3e3107da	0.17288151
8	0xbde618ed	-0.11235223
9	0xbe3ceb71	-0.18449189
10	0xbe7575d9	-0.23970737
11	0xbd82ffc7	-0.06396442
12	0x3e3e2460	0.18568563
13	0x3ca2e580	0.019884825
14	0x3cce6364	0.025193878
15	0xbe20d2ff	-0.15705489
16	0xbd2bfcad	-0.041989017
17	0xbe0ac164	-0.13550335
18	0xbdc5dcbf	-0.096612446
19	0xbd676f43	-0.05650259
20	0xbd4e10b9	-0.050308917
21	0xbd05ee97	-0.03269824
22	0xbd63c559	-0.055608127
23	0x3b92da1a	0.004481566
24	0x3d511fc7	0.051055696
25	0xbdfe76a8	-0.12424976
26	0x3dd1d81c	0.10246298
27	0xbda8d5ad	-0.082438804
28	0xbde0b6e7	-0.10972386
29	0xbe5e723a	-0.21723261
30	0xbe223c24	-0.15843254
31	0x3e089a4a	0.13340107
32	0x3dc35ec6	0.09539561
33	0xbd9987b9	-0.0749659
34	0xbe376c5c	-0.1791243
35	0xbdbb41e5	-0.09143428
36	0xbda13f81	-0.078734405
37	0x3dd8b08b	0.10580548
38	0x3d8cf999	0.068835445
39	0xbc3ffd26	-0.01171807
40	0x3dadb26a	0.084812954
41	0x3d7afe9a	0.061277963
42	0xbd340daf	-0.043958362
43	0xbd92ceac	-0.07168326
44	0x3dbb81b6	0.091556
45	0x3e194093	0.1496604
46	0x3d0a0f3a	0.033705927
47	0x3dd60080	0.10449314
48	0x3e0b2991	0.13590075
49	0xbe48efaa	-0.19622675
50	0x3dbe5ce7	0.092950635
51	0x3e1e6739	0.15469064
52	0xbde72fd3	-0.112884186
53	0x3d5f2441	0.054477934
54	0xbdea6467	-0.114449315
55	0x3d87c9c3	0.0663028
56	0x3d6b0236	0.057375155
57	0x3d0428b1	0.03226537
58	0xbe5259cc	-0.20542067
59	0x3d8044d9	0.06263132
60	0x3e00ffa6	0.12597522
61	0xbc54e56c	-0.012994152
62	0xbe714ab1	-0.23563649
63	0x3b841836	0.0040312065
64	0xbe53a252	-0.20667389
65	0xbdf2c6e1	-0.118543394
66	0xbe048d88	-0.12944615
67	0x3c1ec2d6	0.009690007
68	0x3dd2e3a5	0.10297326
69	0xbdb21815	-0.086959995
70	0x3b23fb87	0.0025021748
71	0xbc422fcd	-0.011852217
72	0xbdbaff2c	-0.091307014
73	0x3c2cfde6	0.010558581
74	0xbe33ebda	-0.17570439
75	0x3cfd96e2	0.030955736
76	0x3d05e37b	0.032687645
77	0xbd998c83	-0.074975036
78	0x3e20d758	0.15707147
79	0x3e303fb6	0.17211804
80	0x3d06fc46	0.03295543
81	0xbc032227	-0.008003748
82	0x3da8be43	0.082394145
83	0xbbbbfa4f	-0.005736626
84	0x3e2ce886	0.16885576
85	0xbe60bbe3	-0.21946673
86	0xbd44a4e4	-0.048008814
87	0xbd8cd1fb	-0.06875988
88	0xbe8e0dd8	-0.27744937
89	0x3e8f5a0a	0.27998382
90	0xbd76bbe0	-0.060237765
91	0x3e88599a	0.2663086
92	0x3d41fbc3	0.04735924
93	0x3e122185	0.14270599
94	0xbdefeeb5	-0.11715452
95	0xbd06ef2b	-0.032942932
96	0x3dfd6605	0.12372974
97	0x3dc2b3d7	0.09506958
98	0x3cfbf668	0.030757144
99	0x3e086e70	0.13323379
100	0xbaabce48	-0.0013107741
101	0x3ce15824	0.027507849
102	0x3dcaa472	0.09894647
103	0xbd82711b	-0.063692294
104	0x3e84eafc	0.2596053
105	0x3df4af56	0.11947505
106	0xbe1dbf0a	-0.15404907
107	0x3caab93f	0.020840285
108	0x3e12bc8f	0.14329742
109	0xbd073e70	-0.03301853
110	0x3d3150af	0.043289836
111	0x3d19ffd9	0.03759751
112	0x3c97f9b3	0.018551683
113	0xbc642392	-0.013924496
114	0xbcb000ac	-0.021484695
115	0x3d261326	0.040545605
116	0x3dc231fd	0.09482191
117	0x3d0019dc	0.03127466
118	0xbe40d393	-0.18830709
119	0xbda0a0d7	-0.07843178
120	0xbddf2113	-0.1089498
121	0x3e2172b3	0.1576641
122	0xbd95ac9e	-0.07308315
123	0xbdf661c3	-0.12030365
124	0xbd2cab6c	-0.04215567
125	0xbe0acdd8	-0.13555086
126	0x3d791331	0.060809318
127	0x3d843eb4	0.06457272
128	0x3e3639cf	0.1779549
129	0xbe03b2b9	-0.12861146
130	0xbc820c1f	-0.01587492
131	0x3d8995b2	0.06718005
132	0x3c079ad9	0.008276665
133	0x3e5e2565	0.21693952
134	0xbdcdfff0	-0.10058582
135	0xbd9042f4	-0.0704402
136	0xbe417fea	-0.18896452
137	0x3cbe10de	0.023201402
138	0x3c33b10a	0.010967502
139	0xbd90c339	-0.07068486
140	0xbcb112f1	-0.021615477
141	0x3e7489ab	0.23880641
142	0x3cfbb2a8	0.030724838
143	0x3d46c9d8	0.048532337
144	0x3d934215	0.071903385
145	0xbbba43d8	-0.005684357
146	0xbd77f94b	-0.06054048
147	0xbdc88187	-0.097903304
148	0x3d7ef3ae	0.06224411
149	0xbe7118f7	-0.2354468
150	0xbd70943a	-0.05873511
151	0x3d76f6d8	0.060294002
152	0x3d9cf0f6	0.07663147
153	0xbda12db7	-0.078700475
154	0xbd4753c3	-0.048663866
155	0xbba68fc4	-0.005083056
156	0x3b245ccb	0.0025079723
157	0xbb85c6fd	-0.004082559
158	0xbd9f2e6d	-0.07772527
159	0x3e160fd2	0.14654472
160	0x3e3f1be6	0.18662986
161	0x3db87ffe	0.090087876
162	0x3cd487e1	0.025943698
163	0x3e3daa82	0.18522075
164	0xbd09eaf9	-0.033671353
165	0x3d5419cf	0.051782425
166	0x3e043cb3	0.1291378
167	0xbe31fb1a	-0.17380944
168	0x3e295328	0.16535628
169	0x3ccc1c90	0.024915963
170	0x3dc62e90	0.0967685
171	0xbd60a62c	-0.054845974
172	0xbd5b1b8d	-0.05349307
173	0x3e07c681	0.13259317
174	0xbc3442e7	-0.011002279
175	0xbd9caa13	-0.076496266
176	0xbd0d0006	-0.03442385
177	0x3d88ba20	0.066761255
178	0x3d527fbd	0.051391352
179	0x3c41974d	0.011815858
180	0xbe26811e	-0.16260192
181	0xbcc91d5b	-0.02455013
182	0xbd176029	-0.03695694
183	0x3e22040d	0.15821858
184	0xbd535c87	-0.051601913
185	0x3d8592ff	0.06522178
186	0xbe3e6ca0	-0.18596125
187	0xbe0be293	-0.1366065
188	0xbbcf0bc7	-0.0063185426
189	0xbaef79f3	-0.0018270597
190	0x3c0c9236	0.008579781
191	0x3dc36f8f	0.095427625
192	0xbe214eee	-0.15752766
193	0x3c4d3ac2	0.012526216
194	0x3df841be	0.12121914
195	0x3daccc61	0.0843742
196	0x3d4eaa5d	0.05045544
197	0xbe0573af	-0.13032411
198	0xbdb6c8ab	-0.08924993
199	0xbd8a11db	-0.06741687
200	0xbd867177	-0.065646105
201	0xbca2e3a2	-0.019883934
202	0xbc2327e8	-0.009958245
203	0x3ea2176c	0.31658494
204	0xbe2283db	-0.15870611
205	0xbd19c6e6	-0.0375432
206	0xbe2474f2	-0.16060236
207	0x3c596922	0.0132696945
208	0x3e3a552f	0.18196557
209	0x3e4336c3	0.19063859
210	0xbdababc6	-0.083823726
211	0xbe1b439f	-0.15162514
212	0x3ddfba3c	0.10924193
213	0x3d6c233e	0.057650797
214	0xbdc54778	-0.09632772
215	0xbd471106	-0.04860022
216	0x3de667f5	0.11250297
217	0xbda3f7e6	-0.08006267
218	0x3e40e8b6	0.18838772
219	0x3e5381f5	0.20655043
220	0x3d2c9217	0.04213151
221	0xbc7d32f2	-0.015454041
222	0x3e8df9b4	0.2772957
223	0xbdb1d04a	-0.08682306
224	0x3c828ec0	0.01593721
225	0x3c2c5ad1	0.010519699
226	0x3d761744	0.06008078
227	0xbdfd69c1	-0.123736866
228	0x3d1e682e	0.038673572
229	0xbe44fbe8	-0.1923672
230	0xbd7bf94b	-0.06151704
231	0x3d20c8cc	0.039253995
232	0xbccfc97f	-0.025364636
233	0x3dbda39c	0.09259722
234	0x3e4e2304	0.20130545
235	0xbdd3cf55	-0.1034228
236	0x3db499b2	0.088183776
237	0xbbfb768a	-0.007674043
238	0x3da2d216	0.07950227
239	0x3e401f40	0.18761921
240	0x3e9b993d	0.3039035
241	0xbe4549e1	-0.19266464
242	0x3cdb8135	0.02679501
243	0xbe0be537	-0.13661657
244	0xbea832d3	-0.32851276
245	0x3d768665	0.060186762
246	0xbe121289	-0.14264883
247	0x3d8221fd	0.06354139
248	0xbe4140c7	-0.18872367
249	0xbd87c4b1	-0.06629313
250	0x3e042b88	0.12907231
251	0xbdc7a2e3	-0.09747865
252	0xbd0f333e	-0.034960978
253	0xbe313da2	-0.17308667
254	0xbe3459fe	-0.17612454
255	0x3e0bde84	0.13659102

decoder.lin0.bias f4 [48]
0	0x00000000	0.0
1	0x00000000	0.0
2	0x00000000	0.0
3	0x00000000	0.0
4	0x00000000	0.0
5	0x00000000	0.0
6	0x00000000	0.0
7	0x00000000	0.0
8	0x00000000	0.0
9	0x00000000	0.0
10	0x00000000	0.0
11	0x00000000	0.0
12	0x00000000	0.0
13	0x00000000	0.0
14	0x00000000	0.0
15	0x00000000	0.0
16	0x00000000	0.0
17	0x00000000	0.0
18	0x00000000	0.0
19	0x00000000	0.0
20	0x00000000	0.0
21	0x00000000	0.0
22	0x00000000	0.0
23	0x00000000	0.0
24	0x00000000	0.0
25	0x00000000	0.0
26	0x00000000	0.0
27	0x00000000	0.0
28	0x00000000	0.0
29	0x00000000	0.0
30	0x00000000	0.0
31	0x00000000	0.0
32	0x00000000	0.0
33	0x00000000	0.0
34	0x00000000	0.0
35	0x00000000	0.0
36	0x00000000	0.0
37	0x00000000	0.0
38	0x00000000	0.0
39	0x00000000	0.0
40	0x00000000	0.0
41	0x00000000	0.0
42	0x00000000	0.0
43	0x00000000	0.0
44	0x00000000	0.0
45	0x00000000	0.0
46	0x00000000	0.0
47	0x00000000	0.0

decoder.lin1.weight f4 [48, 48]
0	0xbdbabc17	-0.091179065
1	0x3e840c36	0.25790566
2	0xbd2f68d4	-0.04282458
3	0x3e4a4f06	0.19756708
4	0x3de01cab	0.10942968
5	0xbd4191e5	-0.047258276
6	0x3e314e74	0.17315084
7	0x3e078236	0.13233265
8	0xbe605137	-0.21905981
9	0x3dd5d8da	0.10441752
10	0x3ecb8d1f	0.39756104
11	0x3cdc4391	0.026887687
12	0x3db2f347	0.08737808
13	0x3cc1bfa6	0.023650955
14	0xbdb360c8	-0.08758694
15	0xbdfdfe54	-0.12402025
16	0x3e399649	0.18123735
17	0xbcf68bf4	-0.030096032
18	0x3db14f51	0.086577065
19	0xbe40cedb	-0.18828909
20	0x3dee93ac	0.1164926
21	0x3e27fcd5	0.16405042
22	0x3d27a108	0.040925056
23	0xbeac884a	-0.3369773
24	0x3d997abe	0.07494114
25	0xbd930657	-0.071789436
26	0xbdd9f5f3	-0.10642614
27	0x3dcadbc6	0.099052
28	0x3d42c767	0.047553446
29	0xbbf198fd	-0.007372974
30	0xbe49c769	-0.19704975
31	0x3d9144f4	0.0709323
32	0x3d6b82d0	0.0574978
33	0xbe0a10bd	-0.13482948
34	0xbe781c46	-0.24229535
35	0x3dc42a7c	0.09578416
36	0xbd805266	-0.06265716
37	0xbd90c09c	-0.07067987
38	0xbdef2cb3	-0.116784476
39	0x3e6d2473	0.23158436
40	0xbe7b7351	-0.24555708
41	0x3e423512	0.18965557
42	0x3eaa1367	0.33217928
43	0x3e1130d0	0.14178777
44	0xbd400e54	-0.046888664
45	0xbe6c2962	-0.23062661
46	0x3c674bcf	0.014117195
47	0xbb8efe5c	-0.004363818
48	0x3d55fa2b	0.052240532
49	0xbe7f5821	-0.24935962
50	0x3e74651e	0.23866698
51	0xbde45712	-0.1114942
52	0xbbbe4963	-0.005807088
53	0x3cf7a3b2	0.030229423
54	0xbd70dc79	-0.05880401
55	0x3c9b5d70	0.018965453
56	0x3c5cd2a1	0.013477952
57	0xbe586583	-0.21132474
58	0xbe8a9115	-0.27063814
59	0x3ceaee3c	0.028678052
60	0x3b56b0fe	0.0032759304
61	0x3d5162f8	0.051119775
62	0x3e190e8a	0.14946952
63	0x3dc5ad74	0.09652224
64	0xbe5cf6c0	-0.21578503
65	0x3d9e072b	0.07716211
66	0x3d8bf87b	0.06834503
67	0x3bf9c628	0.007622499
68	0xbd56b19a	-0.052415468
69	0xbe84a5e3	-0.25907812
70	0x3dcb93e2	0.09940316
71	0xbdcb7d5a	-0.09936018
72	0x3c43d0f8	0.0119516775
73	0xbc8541ce	-0.01626673
74	0xbda7d0eb	-0.08194145
75	0x3cb59093	0.022163665
76	0x3d867ecb	0.065671526
77	0x3e42d808	0.19027722
78	0xbd53f645	-0.051748533
79	0xbc28f29b	-0.010311748
80	0xbdf8494a	-0.12123354
81	0xbe3b10a0	-0.1826806
82	0x3da5effb	0.08102413
83	0xbd8877ba	-0.06663461
84	0xbd5a300c	-0.053268477
85	0x3d97b1a3	0.074069284
86	0xbdd548d3	-0.10414281
87	0x3dce82d9	0.10083551
88	0x3cb1eacd	0.021718407
89	0x3e19fd51	0.15038039
90	0x3e414878	0.18875301
91	0xbe1b4896	-0.15164408
92	0x3e3fb488	0.18721211
93	0x3e179515	0.14802964
94	0x3e79ebf4	0.24406415
95	0xbe8fd5c8	-0.2809279
96	0x3df938c0	0.12169027
97	0x3c9c7891	0.01910046
98	0xbe3dd11f	-0.18536805
99	0x3e1a4f36	0.15069279
100	0x3d2b7cb6	0.04186698
101	0x3e10eea9	0.14153542
102	0xbdb5a6a7	-0.08869677
103	0xbe33e36c	-0.17567223
104	0x3d76cc1c	0.060253248
105	0xbdef3cbc	-0.11681506
106	0x3e3ea2ec	0.18616837
107	0x3d6229ed	0.055215765
108	0x3cb898c0	0.022533774
109	0xbe3edd69	-0.18639149
110	0xbc1cffcd	-0.009582472
111	0x3c870191	0.01648024
112	0x3c1f1652	0.009709911
113	0xbd4f0e33	-0.05055065
114	0x38e7a673	0.00011045942
115	0xbd5e342e	-0.05424898
116	0xbd3e00c4	-0.04638745
117	0xbda3d0d6	-0.07998817
118	0xbdc44683	-0.095837615
119	0x3db96ea5	0.09054307
120	0x3e51df89	0.20495428
121	0x3e602e69	0.21892704
122	0xbd6343e7	-0.05548468
123	0x3bd4686d	0.006482175
124	0xbdfd787a	-0.12376495
125	0xbdb445c2	-0.08802368
126	0xbe481b55	-0.19541676
127	0xbd555ebe	-0.052092306
128	0x3daea29a	0.085271075
129	0x3e37d54a	0.17952457
130	0x3da1a65b	0.07893058
131	0x3d67bbf8	0.056575745
132	0x3e7d4009	0.24731459
133	0xbe581f81	-0.21105768
134	0x3d8b3090	0.06796372
135	0xbd8a3c99	-0.06749839
136	0x3cc37f74	0.023864485
137	0x3e417ef8	0.18896091
138	0xbe4e0930	-0.20120692
139	0xbd2a966d	-0.041647363
140	0x3d26a343	0.040683042
141	0x3dc381cf	0.095462434
142	0x3dca0e54	0.09866014
143	0xbdaf45fe	-0.08558272
144	0x3cc8840a	0.024477024
145	0xbe13d2e7	-0.14435922
146	0x3e3a01af	0.18164705
147	0x3d08dd7f	0.03341436
148	0x3e0930e0	0.1339755
149	0xbe18b264	-0.149118
150	0x3d2b7ac2	0.041865118
151	0xbd126299	-0.03573856
152	0xbe634eec	-0.22198075
153	0x3e584da8	0.21123374
154	0xbe0557e5	-0.1302181
155	0x3dfb1784	0.122603446
156	0xbd930e47	-0.071804576
157	0xbdb5a775	-0.088698305
158	0x3c01ec25	0.007929836
159	0x3cbfcf16	0.023414176
160	0xbd0eca20	-0.03486073
161	0xbc0e560e	-0.008687509
162	0x3e2d8e65	0.1694885
163	0xbe81fdd5	-0.2538897
164	0xbe28cd79	-0.16484632
165	0x3e370cd7	0.17875992
166	0x3e39ac7a	0.18132201
167	0x3e5c6b01	0.21525194
168	0x3d98c451	0.074593194
169	0x3ddcc6cb	0.10780104
170	0xbdf62c8d	-0.12020216
171	0x3e19c490	0.15016389
172	0x3d0d44a2	0.03448928
173	0xbe1e0699	-0.15432204
174	0xbb6ab73e	-0.0035814787
175	0x3d93cb90	0.07216561
176	0xbe3b2dd8	-0.18279207
177	0x3e9db67e	0.30803293
178	0xbdd2ed44	-0.10299161
179	0x3e0492ab	0.12946574
180	0x3d96d0b9	0.073640294
181	0xbcc7834e	-0.024354603
182	0x3dec5cd8	0.11541146
183	0xbe26e6a6	-0.16298923
184	0x3d79f88a	0.06102804
185	0xbd6c38c0	-0.05767131
186	0x3c03ef52	0.008052664
187	0x3d262be1	0.04056919
188	0x3e64bd59	0.22337855
189	0xbe335a0d	-0.1751482
190	0x3e07a1d3	0.13245325
191	0x3e476cd3	0.19475107
192	0xbd987718	-0.0744459
193	0xbe3e6ed9	-0.18596973
194	0xbdad1fc7	-0.08453327
195	0x3e0ccb33	0.1374939
196	0xbdcf9888	-0.10136515
197	0x3ea54d6d	0.32285634
198	0xbe58a0e9	-0.21155132
199	0xbea2e30f	-0.31813857
200	0x3db62cab	0.088952385
201	0x3d87bcc3	0.066278
202	0x3d46e82d	0.048561264
203	0xbe355784	-0.17709166
204	0xbe83f002	-0.2576905
205	0xbcc919a9	-0.024548369
206	0x3dfd4400	0.123664856
207	0x3bf0f5bb	0.007353512
208	0x3dd1d01f	0.10244774
209	0x3df0b919	0.117540546
210	0xbcc2f97e	-0.023800608
211	0x3e18367b	0.14864533
212	0xbd8ac4e4	-0.06775835
213	0x3e4a0534	0.19728547
214	0x3cd6b521	0.026209416
215	0xbdee2feb	-0.116302334
216	0x3dc44beb	0.09584793
217	0x3d926e3d	0.071499325
218	0xbd86dda2	-0.06585242
219	0xbec93bb2	-0.39303356
220	0x3d53f907	0.051751163
221	0xbde81ce8	-0.113336384
222	0xbe107cad	-0.1411006
223	0x3ded03d1	0.115729935
224	0xbdafc593	-0.08582606
225	0xbdef7096	-0.11691396
226	0xbcb2adfa	-0.021811474
227	0xbdf0c3ff	-0.11756133
228	0xbda1d65e	-0.079022154
229	0xbd6c8f13	-0.057753634
230	0xbdfc239e	-0.12311481
231	0xbd21ac39	-0.039470885
232	0x3e8e885d	0.27838412
233	0x3e0695bb	0.13143055
234	0x3d1b02f0	0.0378446
235	0xbe074005	-0.13208015
236	0xbe0314cf	-0.12800907
237	0x3d42f08c	0.047592685
238	0x3e09168a	0.13387504
239	0xbd46df19	-0.048552606
240	0xbd80a6a4	-0.06281784
241	0xbd1b2656	-0.037878357
242	0xbc67927c	-0.014134046
243	0x3d9a4248	0.075321734
244	0xbda5cfb0	-0.08096254
245	0xbca9de1d	-0.020735795
246	0xbe36bfc3	-0.17846589
247	0xbcc3e3f9	-0.023912417
248	0xbce5f3bd	-0.028070325
249	0x3e0d1ae2	0.13779786
250	0x3c565cfc	0.013083693
251	0x3e4eb7f3	0.20187359
252	0x3dec1230	0.115269065
253	0x3e193851	0.14962889
254	0xbe76510c	-0.24054354
255	0xbd81d3c5	-0.0633922

decoder.lin1.bias f4 [48]
0	0x00000000	0.0
1	0x00000000	0.0
2	0x00000000	0.0
3	0x00000000	0.0
4	0x00000000	0.0
5	0x00000000	0.0
6	0x00000000	0.0
7	0x00000000	0.0
8	0x00000000	0.0
9	0x00000000	0.0
10	0x00000000	0.0
11	0x00000000	0.0
12	0x00000000	0.0
13	0x00000000	0.0
14	0x00000000	0.0
15	0x00000000	0.0
16	0x00000000	0.0
17	0x00000000	0.0
18	0x00000000	0.0
19	0x00000000	0.0
20	0x00000000	0.0
21	0x00000000	0.0
22	0x00000000	0.0
23	0x00000000	0.0
24	0x00000000	0.0
25	0x00000000	0.0
26	0x00000000	0.0
27	0x00000000	0.0
28	0x00000000	0.0
29	0x00000000	0.0
30	0x00000000	0.0
31	0x00000000	0.0
32	0x00000000	0.0
33	0x00000000	0.0
34	0x00000000	0.0
35	0x00000000	0.0
36	0x00000000	0.0
37	0x00000000	0.0
38	0x00000000	0.0
39	0x00000000	0.0
40	0x00000000	0.0
41	0x00000000	0.0
42	0x00000000	0.0
43	0x00000000	0.0
44	0x00000000	0.0
45	0x00000000	0.0
46	0x00000000	0.0
47	0x00000000	0.0
